eIQ_model/mnistInverted_classification-performance-npu-2024-10-02T08-41-22.154Z_in-float32_out-float32_channel_qat.tflite (tflite, 633808 bytes, 53 tensors)

model_20/quant_Conv1/Conv2D;model_20/quant_Conv1/LastValueQuant/FakeQuantWithMinMaxVarsPerChannel i1 [16, 3, 3, 3]
00000000: 08a4 c695 0ba0 f64f f6ae f3f3 edad 814b
00000010: e3e3 b373 1462 4302 f2f2 f247 04cc efef
00000020: 525b 25eb 2978 7fd6 5c1c 5e01 014c f259
00000030: f5f5 f5f7 acf7 4602 a1a0 fa5b 489e 81ff
00000040: adb8 53f8 419f a7fb 8d02 6405 a205 0b0b
00000050: 0bf0 f08f b8f8 bc7f 0202 83f4 f451 abfa
00000060: ffff 4df6 7036 fe61 fea3 07bc 077c 5ffe
00000070: fefe f4f4 3c01 6865 064b 06bb 09be 0d5c
00000080: 7f5e 0d0d 0e6d b255 67f8 f3f3 8fef 81ef
00000090: ffff b43c f644 8f50 36c2 4d07 ff47 59ff
000000a0: ffaa 3fa3 fb02 0202 7b0e d6c7 a603 fe44
000000b0: 7104 4004 9cc0 5ec2 5dfe 097f b94f 0367
000000c0: 01a1 9bf6 81f6 9307 0707 0784 b0f9 9aff
000000d0: b763 520b 7009 aba7 7fbe 040c 0c0c 0b70
000000e0: 0bf1 f14c f668 f601 01c2 acf1 f198 b24d
000000f0: 01ab 47bf 0606 0404 0484 f5f5 fbfb fb55
8 -92 -58 -107 11 -96 -10 79
-10 -82 -13 -13 -19 -83 -127 75
-29 -29 -77 115 20 98 67 2
-14 -14 -14 71 4 -52 -17 -17
82 91 37 -21 41 120 127 -42
92 28 94 1 1 76 -14 89
-11 -11 -11 -9 -84 -9 70 2
-95 -96 -6 91 72 -98 -127 -1
-83 -72 83 -8 65 -97 -89 -5
-115 2 100 5 -94 5 11 11
11 -16 -16 -113 -72 -8 -68 127
2 2 -125 -12 -12 81 -85 -6
-1 -1 77 -10 112 54 -2 97
-2 -93 7 -68 7 124 95 -2
-2 -2 -12 -12 60 1 104 101
6 75 6 -69 9 -66 13 92
127 94 13 13 14 109 -78 85
103 -8 -13 -13 -113 -17 -127 -17
-1 -1 -76 60 -10 68 -113 80
54 -62 77 7 -1 71 89 -1
-1 -86 63 -93 -5 2 2 2
123 14 -42 -57 -90 3 -2 68
113 4 64 4 -100 -64 94 -62
93 -2 9 127 -71 79 3 103
1 -95 -101 -10 -127 -10 -109 7
7 7 7 -124 -80 -7 -102 -1
-73 99 82 11 112 9 -85 -89
127 -66 4 12 12 12 11 112
11 -15 -15 76 -10 104 -10 1
1 -62 -84 -15 -15 -104 -78 77
1 -85 71 -65 6 6 4 4
4 -124 -11 -11 -5 -5 -5 85

model_20/quant_expanded_conv_depthwise/depthwise;model_20/quant_expanded_conv_depthwise/LastValueQuant/FakeQuantWithMinMaxVarsPerChannel i1 [1, 3, 3, 16]
00000000: 46c8 f947 2398 9508 3bab 1cb9 29c5 c2cb
00000010: 29df b3ea 0e2c dddf 6d90 21ce 175e cfbd
00000020: 22d9 4392 5e31 f0fc 1e65 14e0 4469 0036
00000030: f647 3153 dfe9 d103 07da 8dcb 3cff e721
00000040: 6c42 ecbc e5f1 cd17 6809 17d7 5f00 8d9e
00000050: 2ce5 01e7 bfae cc07 b92d 01bc aaa9 f49c
00000060: 8af4 c7ac f84f 1eaa bc01 15fe e2e1 39d9
00000070: 9911 7faa fc9d fbdb a6aa b819 2ba6 cba4
00000080: 3a31 5bc2 dd60 b59d 3037 e81f 0ef3 11a0
70 -56 -7 71 35 -104 -107 8
59 -85 28 -71 41 -59 -62 -53
41 -33 -77 -22 14 44 -35 -33
109 -112 33 -50 23 94 -49 -67
34 -39 67 -110 94 49 -16 -4
30 101 20 -32 68 105 0 54
-10 71 49 83 -33 -23 -47 3
7 -38 -115 -53 60 -1 -25 33
108 66 -20 -68 -27 -15 -51 23
104 9 23 -41 95 0 -115 -98
44 -27 1 -25 -65 -82 -52 7
-71 45 1 -68 -86 -87 -12 -100
-118 -12 -57 -84 -8 79 30 -86
-68 1 21 -2 -30 -31 57 -39
-103 17 127 -86 -4 -99 -5 -37
-90 -86 -72 25 43 -90 -53 -92
58 49 91 -62 -35 96 -75 -99
48 55 -24 31 14 -13 17 -96

model_20/quant_expanded_conv_project/Conv2D;model_20/quant_expanded_conv_project/LastValueQuant/FakeQuantWithMinMaxVarsPerChannel i1 [8, 1, 1, 16]
00000000: 02fd 6d7f 934f fb71 f4a3 9504 8577 8578
00000010: 03fd 5af8 0608 0bf6 7f45 ad73 fef7 040c
00000020: 6d04 8101 95fd 6153 b802 7d9e a2b0 fb6a
00000030: aca7 8104 fe01 4804 61ff 0504 99fe fef7
00000040: fa96 ff00 9dfd f801 fb71 fa81 978a f9b1
00000050: 7008 7f51 fe6d 6303 0dfe 5c4b 5db7 9703
00000060: 5151 fe09 f606 027f 4693 fef3 040d f8fb
00000070: 8c8b fd81 07ff 74f5 fe03 93b5 f786 b761
2 -3 109 127 -109 79 -5 113
-12 -93 -107 4 -123 119 -123 120
3 -3 90 -8 6 8 11 -10
127 69 -83 115 -2 -9 4 12
109 4 -127 1 -107 -3 97 83
-72 2 125 -98 -94 -80 -5 106
-84 -89 -127 4 -2 1 72 4
97 -1 5 4 -103 -2 -2 -9
-6 -106 -1 0 -99 -3 -8 1
-5 113 -6 -127 -105 -118 -7 -79
112 8 127 81 -2 109 99 3
13 -2 92 75 93 -73 -105 3
81 81 -2 9 -10 6 2 127
70 -109 -2 -13 4 13 -8 -5
-116 -117 -3 -127 7 -1 116 -11
-2 3 -109 -75 -9 -122 -73 97

model_20/quant_block_1_expand/Conv2D;model_20/quant_block_1_expand/LastValueQuant/FakeQuantWithMinMaxVarsPerChannel i1 [48, 1, 1, 8]
00000000: 0aa5 7ffb af73 6ebf 0b0a f1a2 f900 7f05
00000010: 7f00 0af5 90a0 7efe 1200 0261 c604 7ffc
00000020: 62a6 627f 9bfc 6c57 fd0b 8108 af79 f203
00000030: a98f 01f4 0181 b1f6 06b5 fbfc 06dc 8147
00000040: 0cfd 7f05 8f02 0d44 3e94 05ae 1169 81aa
00000050: 9c7f f07f fd75 f0a1 feb1 7f83 9d10 4909
00000060: 05fb baf7 810c 62fe 7fe4 25f6 0883 040c
00000070: 0800 93fb 7f0c ffa7 5ab4 6981 4d72 0835
00000080: 50af 0671 7f36 c95f 05fa 7781 fa7e 540f
00000090: 0d77 fc81 fd03 0507 4cff fcfa fff7 817d
000000a0: 0cfd 6305 a981 095a f37f 0c5f b212 504a
000000b0: 40ee 01ef fb81 f790 0c0f 0b1f e87f 361d
000000c0: b4f3 fa77 8156 b9f7 8ff8 0ffb 097f 7696
000000d0: 4eff 8106 5bf5 990a 0d7f 1cf8 fd7d c58f
000000e0: a4f8 7ffa 00fe 089f 041c 9f04 d17f 01d6
000000f0: 7f07 0a3a 1611 0a03 66f8 0d0c fe81 0faf
10 -91 127 -5 -81 115 110 -65
11 10 -15 -94 -7 0 127 5
127 0 10 -11 -112 -96 126 -2
18 0 2 97 -58 4 127 -4
98 -90 98 127 -101 -4 108 87
-3 11 -127 8 -81 121 -14 3
-87 -113 1 -12 1 -127 -79 -10
6 -75 -5 -4 6 -36 -127 71
12 -3 127 5 -113 2 13 68
62 -108 5 -82 17 105 -127 -86
-100 127 -16 127 -3 117 -16 -95
-2 -79 127 -125 -99 16 73 9
5 -5 -70 -9 -127 12 98 -2
127 -28 37 -10 8 -125 4 12
8 0 -109 -5 127 12 -1 -89
90 -76 105 -127 77 114 8 53
80 -81 6 113 127 54 -55 95
5 -6 119 -127 -6 126 84 15
13 119 -4 -127 -3 3 5 7
76 -1 -4 -6 -1 -9 -127 125
12 -3 99 5 -87 -127 9 90
-13 127 12 95 -78 18 80 74
64 -18 1 -17 -5 -127 -9 -112
12 15 11 31 -24 127 54 29
-76 -13 -6 119 -127 86 -71 -9
-113 -8 15 -5 9 127 118 -106
78 -1 -127 6 91 -11 -103 10
13 127 28 -8 -3 125 -59 -113
-92 -8 127 -6 0 -2 8 -97
4 28 -97 4 -47 127 1 -42
127 7 10 58 22 17 10 3
102 -8 13 12 -2 -127 15 -81

model_20/quant_block_1_depthwise/depthwise;model_20/quant_block_1_depthwise/LastValueQuant/FakeQuantWithMinMaxVarsPerChannel i1 [1, 3, 3, 48]
00000000: fcbd c7df 1008 dc3d 051a 1dd0 4641 3163
00000010: 181f dde7 c719 b404 b8ec af2f b7da ff45
00000020: f137 35db 02e6 1221 cdda d764 1164 41e0
00000030: e6fa a4e4 1210 03cf e160 19a3 4404 311a
00000040: eae6 2aee e63c f762 3ce5 c549 fadc cada
00000050: bbe9 38da 3dd2 410a fbd9 c507 2b38 11dc
00000060: fce9 be0d f54b e308 a52e f20a 3bcb 3e35
00000070: c9ca 0848 b523 c750 e2bb 3b24 e5e0 14c8
00000080: f8c9 16d2 1beb 3bdc 97e5 c0ee 35bd 08a2
00000090: 13e3 07ff 2bc7 e1d3 082f 1c26 f83c 3d10
000000a0: dd18 2e0a 020e 181a 2033 b938 feb8 e0fa
000000b0: ebd3 2b58 fde7 0503 b9d6 5843 1a18 bcde
000000c0: 7fca 0b38 a71a c6e0 bbd6 f2c4 2a3d efdc
000000d0: f947 e93e e81a fdf8 0f0b e1e0 b3ae 0615
000000e0: a8e1 f52f eb41 e7d8 c3d6 f532 20cf bde9
000000f0: 1b01 c229 b6d2 d5d2 e509 df3e 05ff ebc8
-4 -67 -57 -33 16 8 -36 61
5 26 29 -48 70 65 49 99
24 31 -35 -25 -57 25 -76 4
-72 -20 -81 47 -73 -38 -1 69
-15 55 53 -37 2 -26 18 33
-51 -38 -41 100 17 100 65 -32
-26 -6 -92 -28 18 16 3 -49
-31 96 25 -93 68 4 49 26
-22 -26 42 -18 -26 60 -9 98
60 -27 -59 73 -6 -36 -54 -38
-69 -23 56 -38 61 -46 65 10
-5 -39 -59 7 43 56 17 -36
-4 -23 -66 13 -11 75 -29 8
-91 46 -14 10 59 -53 62 53
-55 -54 8 72 -75 35 -57 80
-30 -69 59 36 -27 -32 20 -56
-8 -55 22 -46 27 -21 59 -36
-105 -27 -64 -18 53 -67 8 -94
19 -29 7 -1 43 -57 -31 -45
8 47 28 38 -8 60 61 16
-35 24 46 10 2 14 24 26
32 51 -71 56 -2 -72 -32 -6
-21 -45 43 88 -3 -25 5 3
-71 -42 88 67 26 24 -68 -34
127 -54 11 56 -89 26 -58 -32
-69 -42 -14 -60 42 61 -17 -36
-7 71 -23 62 -24 26 -3 -8
15 11 -31 -32 -77 -82 6 21
-88 -31 -11 47 -21 65 -25 -40
-61 -42 -11 50 32 -49 -67 -23
27 1 -62 41 -74 -46 -43 -46
-27 9 -33 62 5 -1 -21 -56

model_20/quant_block_1_project/Conv2D;model_20/quant_block_1_project/LastValueQuant/FakeQuantWithMinMaxVarsPerChannel i1 [8, 1, 1, 48]
00000000: 09f7 813b 3f9d 05fa 90fe 09f9 054a bbf9
00000010: f74e 13ae 0901 fc74 fbbb 9d03 f5c4 524e
00000020: faed 0853 0501 70b6 09ed b8ff f995 0103
00000030: 00fe 0058 f604 12f6 bafe ccfd f753 f5fb
00000040: 0f06 25ce ed04 030b bff5 c84e 57ba edf7
00000050: 4532 c54f c2fd f6fc 51f9 fca3 7ffc 02b6
00000060: 966c 05f9 7d08 73a7 5b12 47fa 0a97 5bf4
00000070: a502 5068 f304 430b c008 9f07 7fbd 4dff
00000080: 5cfb 85a8 a48f 957e 651b fa99 54fe 0401
00000090: 4d53 3f35 0842 ff41 3d02 ae08 f647 4ff6
000000a0: f47f bbff 04ad a5c7 3ffd f7fe f806 0df7
000000b0: f9f9 3df2 b64f fbf0 0400 a3fb 014a b009
000000c0: 72f9 a93f f94b 5ecc 97f8 61f6 f0a8 f8fc
000000d0: c874 0767 9802 7209 6b02 44fd 6401 45b7
000000e0: 8681 71a6 5246 05ac 4a99 a651 b5ba ef06
000000f0: 8809 0c72 006b 060b 01f6 f7fc 0b8e fb9a
9 -9 -127 59 63 -99 5 -6
-112 -2 9 -7 5 74 -69 -7
-9 78 19 -82 9 1 -4 116
-5 -69 -99 3 -11 -60 82 78
-6 -19 8 83 5 1 112 -74
9 -19 -72 -1 -7 -107 1 3
0 -2 0 88 -10 4 18 -10
-70 -2 -52 -3 -9 83 -11 -5
15 6 37 -50 -19 4 3 11
-65 -11 -56 78 87 -70 -19 -9
69 50 -59 79 -62 -3 -10 -4
81 -7 -4 -93 127 -4 2 -74
-106 108 5 -7 125 8 115 -89
91 18 71 -6 10 -105 91 -12
-91 2 80 104 -13 4 67 11
-64 8 -97 7 127 -67 77 -1
92 -5 -123 -88 -92 -113 -107 126
101 27 -6 -103 84 -2 4 1
77 83 63 53 8 66 -1 65
61 2 -82 8 -10 71 79 -10
-12 127 -69 -1 4 -83 -91 -57
63 -3 -9 -2 -8 6 13 -9
-7 -7 61 -14 -74 79 -5 -16
4 0 -93 -5 1 74 -80 9
114 -7 -87 63 -7 75 94 -52
-105 -8 97 -10 -16 -88 -8 -4
-56 116 7 103 -104 2 114 9
107 2 68 -3 100 1 69 -73
-122 -127 113 -90 82 70 5 -84
74 -103 -90 81 -75 -70 -17 6
-120 9 12 114 0 107 6 11
1 -10 -9 -4 11 -114 -5 -102

model_20/quant_block_2_expand/Conv2D;model_20/quant_block_2_expand/LastValueQuant/FakeQuantWithMinMaxVarsPerChannel i1 [48, 1, 1, 8]
00000000: 0481 815c fd50 0302 097f f807 ab6a cdb3
00000010: 04f2 8196 fffb f5fa 7696 7f79 6ff8 adff
00000020: 02a9 1369 7f28 7625 ec00 20e7 ff7f f9a7
00000030: 577f 06c6 000f 9eb8 ff81 fdb3 006e 5f88
00000040: b00a 0003 7f8a fdfa 8108 6f84 f116 c19c
00000050: 8a99 f981 8a4e 090f 07ef ee7a 1003 7f71
00000060: 0a5f 937f 79fc 82fe 81f4 0202 ee97 09f9
00000070: 7f06 5662 4444 0bd0 f8fc 3f9a 9ea3 0d7f
00000080: 06f9 f30e 5aef 5981 1002 3ac0 100a 7f50
00000090: 7ff4 51f2 03f2 7212 fd81 abfd fc55 fdfb
000000a0: 9e6b 004c 7f09 0a05 7f08 0cf8 63f9 fe71
000000b0: 9b42 b502 7fca 0303 fcb6 e9b4 81f5 e6ff
000000c0: f600 8104 890b fb71 155d 3a9f 7f04 b5b8
000000d0: 3a72 093c 7f0e fc10 7df9 7cfd 7f8a 4a48
000000e0: 81fe f40b fa06 a1c3 b781 99a8 0572 5409
000000f0: b9b8 fc61 04a7 fe81 1055 ed81 9b11 fd17
4 -127 -127 92 -3 80 3 2
9 127 -8 7 -85 106 -51 -77
4 -14 -127 -106 -1 -5 -11 -6
118 -106 127 121 111 -8 -83 -1
2 -87 19 105 127 40 118 37
-20 0 32 -25 -1 127 -7 -89
87 127 6 -58 0 15 -98 -72
-1 -127 -3 -77 0 110 95 -120
-80 10 0 3 127 -118 -3 -6
-127 8 111 -124 -15 22 -63 -100
-118 -103 -7 -127 -118 78 9 15
7 -17 -18 122 16 3 127 113
10 95 -109 127 121 -4 -126 -2
-127 -12 2 2 -18 -105 9 -7
127 6 86 98 68 68 11 -48
-8 -4 63 -102 -98 -93 13 127
6 -7 -13 14 90 -17 89 -127
16 2 58 -64 16 10 127 80
127 -12 81 -14 3 -14 114 18
-3 -127 -85 -3 -4 85 -3 -5
-98 107 0 76 127 9 10 5
127 8 12 -8 99 -7 -2 113
-101 66 -75 2 127 -54 3 3
-4 -74 -23 -76 -127 -11 -26 -1
-10 0 -127 4 -119 11 -5 113
21 93 58 -97 127 4 -75 -72
58 114 9 60 127 14 -4 16
125 -7 124 -3 127 -118 74 72
-127 -2 -12 11 -6 6 -95 -61
-73 -127 -103 -88 5 114 84 9
-71 -72 -4 97 4 -89 -2 -127
16 85 -19 -127 -101 17 -3 23

model_20/quant_block_2_depthwise/depthwise;model_20/quant_block_2_depthwise/LastValueQuant/FakeQuantWithMinMaxVarsPerChannel i1 [1, 3, 3, 48]
00000000: c332 b8dd adeb c82c de2e 0985 dff2 39ca
00000010: 475e b667 0f63 d4fb 3670 d2ec 3e04 dfcf
00000020: 0f42 3c48 c50a 45ca f119 c90e 33f6 02d2
00000030: d800 1cc4 f74d 83b5 39c9 3a22 ecbf 50c5
00000040: ae2e 2243 acd0 3d03 3129 ffe7 f605 fe00
00000050: bece 510b ba05 2a26 02f6 41c1 2ef1 3dd9
00000060: d1dc dca0 523c e1c4 fbcd f8c0 cb12 0e1b
00000070: ecc6 cc27 b1ea 2944 d32a 24dd 2ebd fdda
00000080: b407 262b be57 da2a 973a 3c0d 564c abf3
00000090: f4b3 d7f3 81d8 1945 4246 2da9 2f3f 0834
000000a0: 4c17 e1ec 4916 c223 54e9 45a3 0922 f935
000000b0: cacf f47e a093 264f cc0f 0cff 095b c35c
000000c0: bef6 410c 2942 3441 e402 3c94 c5d3 4dc1
000000d0: be2c eb16 1260 2d0e ce5b 39c2 1d9e 1947
000000e0: c05a 4356 11b9 39fd f167 df2e 32b1 e929
000000f0: 31f2 44fc cf39 4946 580c d321 da04 41d6
-61 50 -72 -35 -83 -21 -56 44
-34 46 9 -123 -33 -14 57 -54
71 94 -74 103 15 99 -44 -5
54 112 -46 -20 62 4 -33 -49
15 66 60 72 -59 10 69 -54
-15 25 -55 14 51 -10 2 -46
-40 0 28 -60 -9 77 -125 -75
57 -55 58 34 -20 -65 80 -59
-82 46 34 67 -84 -48 61 3
49 41 -1 -25 -10 5 -2 0
-66 -50 81 11 -70 5 42 38
2 -10 65 -63 46 -15 61 -39
-47 -36 -36 -96 82 60 -31 -60
-5 -51 -8 -64 -53 18 14 27
-20 -58 -52 39 -79 -22 41 68
-45 42 36 -35 46 -67 -3 -38
-76 7 38 43 -66 87 -38 42
-105 58 60 13 86 76 -85 -13
-12 -77 -41 -13 -127 -40 25 69
66 70 45 -87 47 63 8 52
76 23 -31 -20 73 22 -62 35
84 -23 69 -93 9 34 -7 53
-54 -49 -12 126 -96 -109 38 79
-52 15 12 -1 9 91 -61 92
-66 -10 65 12 41 66 52 65
-28 2 60 -108 -59 -45 77 -63
-66 44 -21 22 18 96 45 14
-50 91 57 -62 29 -98 25 71
-64 90 67 86 17 -71 57 -3
-15 103 -33 46 50 -79 -23 41
49 -14 68 -4 -49 57 73 70
88 12 -45 33 -38 4 65 -42

model_20/quant_block_2_project/Conv2D;model_20/quant_block_2_project/LastValueQuant/FakeQuantWithMinMaxVarsPerChannel i1 [8, 1, 1, 48]
00000000: 5da5 f4a4 11b9 b003 ef08 0552 016a fd02
00000010: fdf8 5cf7 4903 fe8f f503 5ffe 9c05 5aff
00000020: 5c02 4f17 0d02 0802 06c4 a981 007e 70fb
00000030: 7fb1 0411 0300 0d57 005f 771c 42c0 3af8
00000040: 950f 47f8 52c5 a3d0 f54a 3c56 6ccd fc02
00000050: 0b04 ef61 70aa 0304 055e 5bfa f9fb f2f5
00000060: 1e88 f661 7dfe 0a94 0850 7e12 8706 f7fb
00000070: 0e9a 7ff6 f79d 09a4 978e fdb2 fcc9 52cb
00000080: 6c4f 000c f885 082d fd0a f7f1 fcb8 5eaf
00000090: 10fe 374f c702 030a 3dfe 0202 44fa 06f6
000000a0: 4705 0097 007f 30fb ef4c f9b1 cf58 40a2
000000b0: b703 2ffa c830 0362 ff01 56f8 019f b1ad
000000c0: 61fd 07ff 0993 5ab8 fe0e 9cad b963 4436
000000d0: 00f9 bb07 60fe c3f7 f7ae 08b0 c891 34c5
000000e0: f9f9 81f9 063e a346 7133 9443 a202 f8b2
000000f0: 013d 9209 6909 4836 9a01 0b7f 5443 b9a4
93 -91 -12 -92 17 -71 -80 3
-17 8 5 82 1 106 -3 2
-3 -8 92 -9 73 3 -2 -113
-11 3 95 -2 -100 5 90 -1
92 2 79 23 13 2 8 2
6 -60 -87 -127 0 126 112 -5
127 -79 4 17 3 0 13 87
0 95 119 28 66 -64 58 -8
-107 15 71 -8 82 -59 -93 -48
-11 74 60 86 108 -51 -4 2
11 4 -17 97 112 -86 3 4
5 94 91 -6 -7 -5 -14 -11
30 -120 -10 97 125 -2 10 -108
8 80 126 18 -121 6 -9 -5
14 -102 127 -10 -9 -99 9 -92
-105 -114 -3 -78 -4 -55 82 -53
108 79 0 12 -8 -123 8 45
-3 10 -9 -15 -4 -72 94 -81
16 -2 55 79 -57 2 3 10
61 -2 2 2 68 -6 6 -10
71 5 0 -105 0 127 48 -5
-17 76 -7 -79 -49 88 64 -94
-73 3 47 -6 -56 48 3 98
-1 1 86 -8 1 -97 -79 -83
97 -3 7 -1 9 -109 90 -72
-2 14 -100 -83 -71 99 68 54
0 -7 -69 7 96 -2 -61 -9
-9 -82 8 -80 -56 -111 52 -59
-7 -7 -127 -7 6 62 -93 70
113 51 -108 67 -94 2 -8 -78
1 61 -110 9 105 9 72 54
-102 1 11 127 84 67 -71 -92

model_20/quant_block_3_expand/Conv2D;model_20/quant_block_3_expand/LastValueQuant/FakeQuantWithMinMaxVarsPerChannel i1 [48, 1, 1, 8]
00000000: f6af 8201 0581 fe09 0801 0481 00a1 6f9f
00000010: f981 aba5 5b3d 7854 fea5 7fee 2c06 48f6
00000020: 947f 0c9a 8b68 01a7 064e fc07 be81 ff5c
00000030: f481 92f5 f88d fc00 fffc 8192 bfa6 fc84
00000040: 1a5d fe50 0a88 477f adf6 f285 ff05 7f76
00000050: aa06 7f29 f812 4700 aff4 4581 fb9d 0a01
00000060: 046e 6681 179d 040a 0383 f5af 03f4 7f55
00000070: 7f00 5a69 0b02 bd6e f806 0981 035b 0500
00000080: 4d47 92b2 5e07 7f08 0581 fb93 9206 f550
00000090: 0397 f204 bf81 0a69 9a81 6550 f6a3 fbfc
000000a0: ccb2 fe02 07fc 047f 8101 8404 70f1 0cc0
000000b0: 456c 81ff 1110 7a1e 5ef8 f16b fffb 7781
000000c0: fbf1 0094 f907 81f8 02ac b305 3e66 4c81
000000d0: f92c ff81 553d 58f5 fe7f 046b 930c ff09
000000e0: f402 81f7 0505 b20b 52a4 a6f7 377f 5a53
000000f0: f84c abe9 0093 657f 8271 06af 7f56 fff7
-10 -81 -126 1 5 -127 -2 9
8 1 4 -127 0 -95 111 -97
-7 -127 -85 -91 91 61 120 84
-2 -91 127 -18 44 6 72 -10
-108 127 12 -102 -117 104 1 -89
6 78 -4 7 -66 -127 -1 92
-12 -127 -110 -11 -8 -115 -4 0
-1 -4 -127 -110 -65 -90 -4 -124
26 93 -2 80 10 -120 71 127
-83 -10 -14 -123 -1 5 127 118
-86 6 127 41 -8 18 71 0
-81 -12 69 -127 -5 -99 10 1
4 110 102 -127 23 -99 4 10
3 -125 -11 -81 3 -12 127 85
127 0 90 105 11 2 -67 110
-8 6 9 -127 3 91 5 0
77 71 -110 -78 94 7 127 8
5 -127 -5 -109 -110 6 -11 80
3 -105 -14 4 -65 -127 10 105
-102 -127 101 80 -10 -93 -5 -4
-52 -78 -2 2 7 -4 4 127
-127 1 -124 4 112 -15 12 -64
69 108 -127 -1 17 16 122 30
94 -8 -15 107 -1 -5 119 -127
-5 -15 0 -108 -7 7 -127 -8
2 -84 -77 5 62 102 76 -127
-7 44 -1 -127 85 61 88 -11
-2 127 4 107 -109 12 -1 9
-12 2 -127 -9 5 5 -78 11
82 -92 -90 -9 55 127 90 83
-8 76 -85 -23 0 -109 101 127
-126 113 6 -81 127 86 -1 -9

model_20/quant_block_3_depthwise/depthwise;model_20/quant_block_3_depthwise/LastValueQuant/FakeQuantWithMinMaxVarsPerChannel i1 [1, 3, 3, 48]
00000000: c311 0cd2 fadb 1003 b90a dee5 d245 4ea5
00000010: 243d 2717 e3f8 c9cf e5e3 1a30 b7df fff1
00000020: c1ec e3db f5d8 2fea 1333 173a 2bf5 cb20
00000030: 9aca b921 0d54 2de2 19e7 1919 b5c2 bfc6
00000040: d307 c6e3 cf1e 09e6 f12f e82f f625 3de4
00000050: fafb c800 25e7 dd05 1f1b 3916 d2f7 04cd
00000060: fef1 4218 4469 2ce8 c708 1b10 cb16 0e22
00000070: 3aac 9fc1 cc3c 400e fc40 bff6 3e2a 0933
00000080: e7ef 26c6 cae5 1605 c755 1d17 d503 3acd
00000090: cdb3 0f27 39d0 19d5 ebc6 12c7 f0b8 ecbc
000000a0: 2b09 c2ff fd07 dada 50dd cb2f 12fd f406
000000b0: d6b4 dadf e019 0404 1dd5 0b0c 164d 0b12
000000c0: 2d0e f1db 3505 4106 25e5 e01b 310b d5dd
000000d0: fcb6 1938 d223 0f0e 5650 f4be a7f5 bdda
000000e0: f1e0 1dbe f638 1c25 4cfa e5d3 9430 3730
000000f0: ef40 52e2 cfef 3645 e556 f2e5 5300 cc43
-61 17 12 -46 -6 -37 16 3
-71 10 -34 -27 -46 69 78 -91
36 61 39 23 -29 -8 -55 -49
-27 -29 26 48 -73 -33 -1 -15
-63 -20 -29 -37 -11 -40 47 -22
19 51 23 58 43 -11 -53 32
-102 -54 -71 33 13 84 45 -30
25 -25 25 25 -75 -62 -65 -58
-45 7 -58 -29 -49 30 9 -26
-15 47 -24 47 -10 37 61 -28
-6 -5 -56 0 37 -25 -35 5
31 27 57 22 -46 -9 4 -51
-2 -15 66 24 68 105 44 -24
-57 8 27 16 -53 22 14 34
58 -84 -97 -63 -52 60 64 14
-4 64 -65 -10 62 42 9 51
-25 -17 38 -58 -54 -27 22 5
-57 85 29 23 -43 3 58 -51
-51 -77 15 39 57 -48 25 -43
-21 -58 18 -57 -16 -72 -20 -68
43 9 -62 -1 -3 7 -38 -38
80 -35 -53 47 18 -3 -12 6
-42 -76 -38 -33 -32 25 4 4
29 -43 11 12 22 77 11 18
45 14 -15 -37 53 5 65 6
37 -27 -32 27 49 11 -43 -35
-4 -74 25 56 -46 35 15 14
86 80 -12 -66 -89 -11 -67 -38
-15 -32 29 -66 -10 56 28 37
76 -6 -27 -45 -108 48 55 48
-17 64 82 -30 -49 -17 54 69
-27 86 -14 -27 83 0 -52 67

model_20/quant_block_3_project/Conv2D;model_20/quant_block_3_project/LastValueQuant/FakeQuantWithMinMaxVarsPerChannel i1 [16, 1, 1, 48]
00000000: 74ff f408 03f9 9408 098d fcfd 5302 4f62
00000010: fc89 4e4e 0b89 0353 68a9 ff7f 07fa 8b54
00000020: 0103 8abb 886b ff02 0187 8266 f9b7 856a
00000030: 5944 a1b1 ffff aea9 0657 02fc a90c fe43
00000040: fe89 0245 02fe fac5 c1a2 5c0a 0167 09c9
00000050: c30a 0c10 fff1 40f0 fcae f694 2dbe 81fa
00000060: 6f06 50ae 0267 f805 0759 6505 a20a 47ca
00000070: c15e f1a5 fd48 fe4e caca 0b38 c3bd 4aff
00000080: c443 bc4d 0081 41b8 9fa7 8503 73f6 fe08
00000090: 544a 07fe 064f 914f 7341 fdfe 2c51 f9f4
000000a0: 0e52 02e8 6303 be01 f5f5 099a 4ef5 81ff
000000b0: fb02 45a7 8fff 36f0 4f88 9afb ff03 d0fc
000000c0: fc05 a00c 4eac ae10 58f9 f9cc 0742 fdfd
000000d0: 0754 7600 06fd 0709 ca37 00f6 0281 68fc
000000e0: fc11 050a a209 04ab 4cc2 cdc4 5ea5 03fb
000000f0: fffb fa05 a107 f7e8 adf8 6255 70fa 0c93
116 -1 -12 8 3 -7 -108 8
9 -115 -4 -3 83 2 79 98
-4 -119 78 78 11 -119 3 83
104 -87 -1 127 7 -6 -117 84
1 3 -118 -69 -120 107 -1 2
1 -121 -126 102 -7 -73 -123 106
89 68 -95 -79 -1 -1 -82 -87
6 87 2 -4 -87 12 -2 67
-2 -119 2 69 2 -2 -6 -59
-63 -94 92 10 1 103 9 -55
-61 10 12 16 -1 -15 64 -16
-4 -82 -10 -108 45 -66 -127 -6
111 6 80 -82 2 103 -8 5
7 89 101 5 -94 10 71 -54
-63 94 -15 -91 -3 72 -2 78
-54 -54 11 56 -61 -67 74 -1
-60 67 -68 77 0 -127 65 -72
-97 -89 -123 3 115 -10 -2 8
84 74 7 -2 6 79 -111 79
115 65 -3 -2 44 81 -7 -12
14 82 2 -24 99 3 -66 1
-11 -11 9 -102 78 -11 -127 -1
-5 2 69 -89 -113 -1 54 -16
79 -120 -102 -5 -1 3 -48 -4
-4 5 -96 12 78 -84 -82 16
88 -7 -7 -52 7 66 -3 -3
7 84 118 0 6 -3 7 9
-54 55 0 -10 2 -127 104 -4
-4 17 5 10 -94 9 4 -85
76 -62 -51 -60 94 -91 3 -5
-1 -5 -6 5 -95 7 -9 -24
-83 -8 98 85 112 -6 12 -109

model_20/quant_block_4_expand/Conv2D;model_20/quant_block_4_expand/LastValueQuant/FakeQuantWithMinMaxVarsPerChannel i1 [96, 1, 1, 16]
00000000: 473c 02f8 fe81 0603 c305 fffa 44c8 46a0
00000010: 7367 f9fb 7f5d 4bf6 0407 b4c5 3ca3 fba8
00000020: 4926 0f07 a886 8104 96ed a17d 0c01 09ae
00000030: fed1 bdac 5393 f612 0c81 ee05 0367 68d2
00000040: 0eb5 fcff fb7f 9407 efb6 f256 72ca caf1
00000050: 8206 b8a0 398f 055b a781 50fb 08fd 1407
00000060: 4c7f 0000 1863 790f 4c09 6312 cb4b 8afc
00000070: 0150 f8fd a39e 84b4 f514 06e9 1a81 efb4
00000080: 98ff 07a4 0695 8bfb 1006 7f3d a3fb 8c57
00000090: 3d52 03fe eea3 a6c4 ad81 a17a 3910 aef5
000000a0: 6560 f25e 8e4e 0581 866a f0af 434b 39b9
000000b0: f63c 0e60 f5ea 6801 0802 c48b 8105 79fc
000000c0: 56f9 c501 d8a7 086f 10c9 7f58 fe6f 525d
000000d0: e0f6 96f5 6750 c6fa 050e b4ff 5481 2308
000000e0: 33fc 05a5 359f 1bc2 f37f a803 a04b fc3f
000000f0: 19f8 0a67 0afe 04fe 40cc 4484 b847 8110
71 60 2 -8 -2 -127 6 3
-61 5 -1 -6 68 -56 70 -96
115 103 -7 -5 127 93 75 -10
4 7 -76 -59 60 -93 -5 -88
73 38 15 7 -88 -122 -127 4
-106 -19 -95 125 12 1 9 -82
-2 -47 -67 -84 83 -109 -10 18
12 -127 -18 5 3 103 104 -46
14 -75 -4 -1 -5 127 -108 7
-17 -74 -14 86 114 -54 -54 -15
-126 6 -72 -96 57 -113 5 91
-89 -127 80 -5 8 -3 20 7
76 127 0 0 24 99 121 15
76 9 99 18 -53 75 -118 -4
1 80 -8 -3 -93 -98 -124 -76
-11 20 6 -23 26 -127 -17 -76
-104 -1 7 -92 6 -107 -117 -5
16 6 127 61 -93 -5 -116 87
61 82 3 -2 -18 -93 -90 -60
-83 -127 -95 122 57 16 -82 -11
101 96 -14 94 -114 78 5 -127
-122 106 -16 -81 67 75 57 -71
-10 60 14 96 -11 -22 104 1
8 2 -60 -117 -127 5 121 -4
86 -7 -59 1 -40 -89 8 111
16 -55 127 88 -2 111 82 93
-32 -10 -106 -11 103 80 -58 -6
5 14 -76 -1 84 -127 35 8
51 -4 5 -91 53 -97 27 -62
-13 127 -88 3 -96 75 -4 63
25 -8 10 103 10 -2 4 -2
64 -52 68 -124 -72 71 -127 16

model_20/quant_block_4_depthwise/depthwise;model_20/quant_block_4_depthwise/LastValueQuant/FakeQuantWithMinMaxVarsPerChannel i1 [1, 3, 3, 96]
00000000: de03 1dde 1fd8 fcd7 da04 c63a c5c4 e6db
00000010: 4e41 d9ff 4018 0618 1ed5 4326 c516 b706
00000020: fcc8 17d8 263d d121 49f8 fdd2 3406 e61f
00000030: 1dba dd51 f7c8 4012 da29 acc5 bffc f02b
00000040: 3c29 a738 40bf 1adc ec3f 1e11 0216 3606
00000050: 1e1f 41d7 362c 3a16 5931 0dd8 edea defc
00000060: 1af0 34ea 3cb4 f70f e444 e716 092c 05f4
00000070: 370a bcc0 4014 17cf 50f1 28c7 d90f 3e30
00000080: 8105 e2f2 ece7 2bdc 3832 4d1d 0f4c 4cbe
00000090: 1bd1 30ea f52d 34bd ff23 ca01 b6ec 44c9
000000a0: 343e 34e7 f612 dfd0 0c3f 00c9 fbfe d3e1
000000b0: e828 05c4 0dd1 3d08 f698 2c06 e42d d4ce
000000c0: 161f f408 30cb 1526 bc20 d0d9 1cd2 07ce
000000d0: fee8 e62e 3246 24eb 2a18 e8ee 4813 d025
000000e0: c805 dfe8 a3fb 0ee8 f855 2747 df21 31e5
000000f0: c33e d2f8 e817 0d02 f13d bd3c cf13 34e2
-34 3 29 -34 31 -40 -4 -41
-38 4 -58 58 -59 -60 -26 -37
78 65 -39 -1 64 24 6 24
30 -43 67 38 -59 22 -73 6
-4 -56 23 -40 38 61 -47 33
73 -8 -3 -46 52 6 -26 31
29 -70 -35 81 -9 -56 64 18
-38 41 -84 -59 -65 -4 -16 43
60 41 -89 56 64 -65 26 -36
-20 63 30 17 2 22 54 6
30 31 65 -41 54 44 58 22
89 49 13 -40 -19 -22 -34 -4
26 -16 52 -22 60 -76 -9 15
-28 68 -25 22 9 44 5 -12
55 10 -68 -64 64 20 23 -49
80 -15 40 -57 -39 15 62 48
-127 5 -30 -14 -20 -25 43 -36
56 50 77 29 15 76 76 -66
27 -47 48 -22 -11 45 52 -67
-1 35 -54 1 -74 -20 68 -55
52 62 52 -25 -10 18 -33 -48
12 63 0 -55 -5 -2 -45 -31
-24 40 5 -60 13 -47 61 8
-10 -104 44 6 -28 45 -44 -50
22 31 -12 8 48 -53 21 38
-68 32 -48 -39 28 -46 7 -50
-2 -24 -26 46 50 70 36 -21
42 24 -24 -18 72 19 -48 37
-56 5 -33 -24 -93 -5 14 -24
-8 85 39 71 -33 33 49 -27
-61 62 -46 -8 -24 23 13 2
-15 61 -67 60 -49 19 52 -30

model_20/quant_block_4_project/Conv2D;model_20/quant_block_4_project/LastValueQuant/FakeQuantWithMinMaxVarsPerChannel i1 [16, 1, 1, 96]
00000000: f9f8 0599 6a70 0df5 ab0a 9a5b c993 69a3
00000010: 0a3b 5f03 5604 b0f7 04fb f4fd f8c8 fc4d
00000020: 030f 0b00 574f 2ef7 fffc 3504 63f9 8164
00000030: 7606 f8a7 f9fe 07fa 89fb fb0a ad4c c2d6
00000040: 2e92 04b1 4b01 05b3 adf6 4b02 3da0 2ded
00000050: fdf5 585b 01fc 42fa 0133 bf56 6202 fbf2
00000060: 457f aaee 0c08 b85a 1beb 890a fefb ba68
00000070: aaf4 6400 9b03 fffd 0b0e f4bc afec 0607
00000080: 8d70 1065 a907 01f2 e80c fdef c108 5207
00000090: 6ffc 07f8 0011 9f1c 03f4 fcee 5868 51fa
000000a0: ed99 4af6 0fb0 4605 01b6 a55f 45ec 2e9c
000000b0: 000b 5500 a482 f357 36fc fc6b 715f 003b
000000c0: 6d4b 0440 620a f9be c0a9 fd87 0968 fcf0
000000d0: 05ff ee0d 4c0f 2d12 f107 f832 f5b7 684b
000000e0: f748 ffc5 127f 00fb 040e 9d0a a48f 8fab
000000f0: 41fa b36a f8fb b500 ea03 a0ad 07f9 fd9c
-7 -8 5 -103 106 112 13 -11
-85 10 -102 91 -55 -109 105 -93
10 59 95 3 86 4 -80 -9
4 -5 -12 -3 -8 -56 -4 77
3 15 11 0 87 79 46 -9
-1 -4 53 4 99 -7 -127 100
118 6 -8 -89 -7 -2 7 -6
-119 -5 -5 10 -83 76 -62 -42
46 -110 4 -79 75 1 5 -77
-83 -10 75 2 61 -96 45 -19
-3 -11 88 91 1 -4 66 -6
1 51 -65 86 98 2 -5 -14
69 127 -86 -18 12 8 -72 90
27 -21 -119 10 -2 -5 -70 104
-86 -12 100 0 -101 3 -1 -3
11 14 -12 -68 -81 -20 6 7
-115 112 16 101 -87 7 1 -14
-24 12 -3 -17 -63 8 82 7
111 -4 7 -8 0 17 -97 28
3 -12 -4 -18 88 104 81 -6
-19 -103 74 -10 15 -80 70 5
1 -74 -91 95 69 -20 46 -100
0 11 85 0 -92 -126 -13 87
54 -4 -4 107 113 95 0 59
109 75 4 64 98 10 -7 -66
-64 -87 -3 -121 9 104 -4 -16
5 -1 -18 13 76 15 45 18
-15 7 -8 50 -11 -73 104 75
-9 72 -1 -59 18 127 0 -5
4 14 -99 10 -92 -113 -113 -85
65 -6 -77 106 -8 -5 -75 0
-22 3 -96 -83 7 -7 -3 -100

model_20/quant_block_5_expand/Conv2D;model_20/quant_block_5_expand/LastValueQuant/FakeQuantWithMinMaxVarsPerChannel i1 [96, 1, 1, 16]
00000000: f2fb a508 0dfe 7f9d 447b 0009 0b96 93cb
00000010: fc06 7b0c 08fa 5904 f28c fe7f 8ff9 b0a5
00000020: 6962 6e56 1208 fc87 f80d ca5a 5b03 7f3d
00000030: a3ef f3f9 81fd afef f8a4 fde6 10eb 65f8
00000040: 0bf2 9cf2 8a4c 0a07 af08 eff4 f47f 0e62
00000050: 81ce 240c 0bb4 625a f702 0516 bdcf b946
00000060: f58a fd7a 0ea5 6c99 9e74 0e3d 1d81 0760
00000070: a2b7 0b6b aef7 05fa 019a 0381 52a3 1603
00000080: f901 4cfe fef9 f8fd f77f f992 f86c 0aae
00000090: f2f3 000c bb8c 0806 03fc 899c 8105 85a0
000000a0: 0406 fab0 81a4 46fe 65f8 b304 7504 fb4d
000000b0: ae59 4079 147f fc04 fc03 04fe ad02 0af6
000000c0: 046e 02c8 f6f8 8110 fbfc 5010 905d 86fe
000000d0: 81f7 c1ff fea3 89bd 74b3 767c f9c0 ff05
000000e0: f7f9 c001 7f3d 98aa 1110 0703 befc 844f
000000f0: 1318 edc3 7f0d f022 9bf1 7909 cf00 13fc
-14 -5 -91 8 13 -2 127 -99
68 123 0 9 11 -106 -109 -53
-4 6 123 12 8 -6 89 4
-14 -116 -2 127 -113 -7 -80 -91
105 98 110 86 18 8 -4 -121
-8 13 -54 90 91 3 127 61
-93 -17 -13 -7 -127 -3 -81 -17
-8 -92 -3 -26 16 -21 101 -8
11 -14 -100 -14 -118 76 10 7
-81 8 -17 -12 -12 127 14 98
-127 -50 36 12 11 -76 98 90
-9 2 5 22 -67 -49 -71 70
-11 -118 -3 122 14 -91 108 -103
-98 116 14 61 29 -127 7 96
-94 -73 11 107 -82 -9 5 -6
1 -102 3 -127 82 -93 22 3
-7 1 76 -2 -2 -7 -8 -3
-9 127 -7 -110 -8 108 10 -82
-14 -13 0 12 -69 -116 8 6
3 -4 -119 -100 -127 5 -123 -96
4 6 -6 -80 -127 -92 70 -2
101 -8 -77 4 117 4 -5 77
-82 89 64 121 20 127 -4 4
-4 3 4 -2 -83 2 10 -10
4 110 2 -56 -10 -8 -127 16
-5 -4 80 16 -112 93 -122 -2
-127 -9 -63 -1 -2 -93 -119 -67
116 -77 118 124 -7 -64 -1 5
-9 -7 -64 1 127 61 -104 -86
17 16 7 3 -66 -4 -124 79
19 24 -19 -61 127 13 -16 34
-101 -15 121 9 -49 0 19 -4

model_20/quant_block_5_depthwise/depthwise;model_20/quant_block_5_depthwise/LastValueQuant/FakeQuantWithMinMaxVarsPerChannel i1 [1, 3, 3, 96]
00000000: 40e8 3fcf 05ca 46d7 273a 1a49 f6f3 0b42
00000010: 3fbb 17e4 440e f9f3 1e2f 10e3 361d 42ee
00000020: 47e7 0db9 fb15 01a6 3db1 b581 b93b 23f4
00000030: dc71 242d 1054 c538 c9bb 43e0 f5e5 28d5
00000040: 1d0f 2926 fdfe 52f7 daf5 c2cb ecd5 ec2e
00000050: fce0 2026 0e13 1010 fc05 ae31 0fef 1314
00000060: 2c1d 2bc0 fc1f d762 eaea 2cb5 fdc5 bf3b
00000070: 41f3 f1ad e7e0 e925 0d06 fc0f ede1 3500
00000080: 2eb6 13a7 153b 3de1 4e26 baf4 29fb 14f8
00000090: 36db d815 bdfb c624 c42d 2336 bd53 d829
000000a0: 0dee 2ceb f271 162b dcfc 2bd6 b9f3 d636
000000b0: fb33 2e26 f614 e2eb eafe a305 ece9 4efe
000000c0: 3741 d5cf 33f6 c1f6 b332 38f0 00f1 bed1
000000d0: d045 a58b c533 2e29 0a30 1601 cba1 1c55
000000e0: 08e2 c729 e517 a41d 3412 1909 0213 e826
000000f0: 021d 1e2a 02bd 32c7 3721 f200 362b c9b2
64 -24 63 -49 5 -54 70 -41
39 58 26 73 -10 -13 11 66
63 -69 23 -28 68 14 -7 -13
30 47 16 -29 54 29 66 -18
71 -25 13 -71 -5 21 1 -90
61 -79 -75 -127 -71 59 35 -12
-36 113 36 45 16 84 -59 56
-55 -69 67 -32 -11 -27 40 -43
29 15 41 38 -3 -2 82 -9
-38 -11 -62 -53 -20 -43 -20 46
-4 -32 32 38 14 19 16 16
-4 5 -82 49 15 -17 19 20
44 29 43 -64 -4 31 -41 98
-22 -22 44 -75 -3 -59 -65 59
65 -13 -15 -83 -25 -32 -23 37
13 6 -4 15 -19 -31 53 0
46 -74 19 -89 21 59 61 -31
78 38 -70 -12 41 -5 20 -8
54 -37 -40 21 -67 -5 -58 36
-60 45 35 54 -67 83 -40 41
13 -18 44 -21 -14 113 22 43
-36 -4 43 -42 -71 -13 -42 54
-5 51 46 38 -10 20 -30 -21
-22 -2 -93 5 -20 -23 78 -2
55 65 -43 -49 51 -10 -63 -10
-77 50 56 -16 0 -15 -66 -47
-48 69 -91 -117 -59 51 46 41
10 48 22 1 -53 -95 28 85
8 -30 -57 41 -27 23 -92 29
52 18 25 9 2 19 -24 38
2 29 30 42 2 -67 50 -57
55 33 -14 0 54 43 -55 -78

model_20/quant_block_5_project/Conv2D;model_20/quant_block_5_project/LastValueQuant/FakeQuantWithMinMaxVarsPerChannel i1 [16, 1, 1, 96]
00000000: fbf2 f354 5ae5 00a9 135a 0302 ed01 02b2
00000010: f0b3 074c 57fc 0f05 fe65 9af8 4648 5905
00000020: 01fa 515f 6a81 4312 4dfc a40a 43a0 0109
00000030: b8fc 02fc 46fd a031 3603 fd64 6103 a74b
00000040: 4201 033f f2f4 03ac 468a fe93 a97a 62f7
00000050: 584d feff 6efa 5b3c 9bad 090b fd4d ee4e
00000060: 02ae 01c5 6b5b a04e 4af8 f804 990a f609
00000070: 9b05 eeb1 bafc 0560 52ba 017f 6104 8c03
00000080: f40a 5203 0be8 fa4f a0b9 8ba8 67ed 7160
00000090: 093f 8802 66fd 603f 0807 6807 013f f50d
000000a0: 0218 5766 c6fc 0135 aef7 6100 bdf2 b76b
000000b0: f9f0 10f0 11fb f8c2 99bc 0807 daf7 ed08
000000c0: b0fa f043 3509 0afd 02ac fead 47f1 58f4
000000d0: fc01 419f f1fb 110a 070b 10fc a69d f610
000000e0: 7e02 2c92 05c6 5e69 f34a 5bfb f3cf b7b3
000000f0: 90fb 04ed 59f9 7fc5 0b07 4341 c6ba 0300
-5 -14 -13 84 90 -27 0 -87
19 90 3 2 -19 1 2 -78
-16 -77 7 76 87 -4 15 5
-2 101 -102 -8 70 72 89 5
1 -6 81 95 106 -127 67 18
77 -4 -92 10 67 -96 1 9
-72 -4 2 -4 70 -3 -96 49
54 3 -3 100 97 3 -89 75
66 1 3 63 -14 -12 3 -84
70 -118 -2 -109 -87 122 98 -9
88 77 -2 -1 110 -6 91 60
-101 -83 9 11 -3 77 -18 78
2 -82 1 -59 107 91 -96 78
74 -8 -8 4 -103 10 -10 9
-101 5 -18 -79 -70 -4 5 96
82 -70 1 127 97 4 -116 3
-12 10 82 3 11 -24 -6 79
-96 -71 -117 -88 103 -19 113 96
9 63 -120 2 102 -3 96 63
8 7 104 7 1 63 -11 13
2 24 87 102 -58 -4 1 53
-82 -9 97 0 -67 -14 -73 107
-7 -16 16 -16 17 -5 -8 -62
-103 -68 8 7 -38 -9 -19 8
-80 -6 -16 67 53 9 10 -3
2 -84 -2 -83 71 -15 88 -12
-4 1 65 -97 -15 -5 17 10
7 11 16 -4 -90 -99 -10 16
126 2 44 -110 5 -58 94 105
-13 74 91 -5 -13 -49 -73 -77
-112 -5 4 -19 89 -7 127 -59
11 7 67 65 -58 -70 3 0

model_20/quant_block_6_expand/Conv2D;model_20/quant_block_6_expand/LastValueQuant/FakeQuantWithMinMaxVarsPerChannel i1 [96, 1, 1, 16]
00000000: 06c3 7f54 afb3 f4fe 6353 9d5e 0902 b99a
00000010: 76fe 0309 0aa0 c1e9 04fb 0281 5408 a24d
00000020: cda6 b2f9 f5c8 fcb2 7f35 b861 fc53 5509
00000030: 0281 b508 1809 8a0c 09f4 bfb7 fc95 1b0c
00000040: b1f7 8104 8795 8bff f25f 6dfc 51f9 fb54
00000050: be63 45fb 73ba fb6e aef1 4e94 7f6b 0517
00000060: 0a09 8701 6902 5605 5b85 ecf9 08a8 7f4d
00000070: 7fa4 a20b 063d 048b 9dfb 525f ffed b4a3
00000080: b307 0781 0152 acfd 2a07 986d 014a 03ec
00000090: 5904 77f8 066d a951 a502 6d81 8976 94f5
000000a0: f886 6b9f 5001 05a3 f27f 6cb7 f775 a7f4
000000b0: 0204 a216 f70d fe05 1e5a 757f 6a0c 0081
000000c0: fbb8 52a3 f0a5 f9b6 a0fc f67f f8fb 9caf
000000d0: 2f63 010f fc06 adfb 81ae 0509 09fa f3fd
000000e0: f812 137c 56f6 a94a 7f5e 0017 990c aef6
000000f0: 9c02 0b06 0082 fb58 0179 055f ae90 f97f
6 -61 127 84 -81 -77 -12 -2
99 83 -99 94 9 2 -71 -102
118 -2 3 9 10 -96 -63 -23
4 -5 2 -127 84 8 -94 77
-51 -90 -78 -7 -11 -56 -4 -78
127 53 -72 97 -4 83 85 9
2 -127 -75 8 24 9 -118 12
9 -12 -65 -73 -4 -107 27 12
-79 -9 -127 4 -121 -107 -117 -1
-14 95 109 -4 81 -7 -5 84
-66 99 69 -5 115 -70 -5 110
-82 -15 78 -108 127 107 5 23
10 9 -121 1 105 2 86 5
91 -123 -20 -7 8 -88 127 77
127 -92 -94 11 6 61 4 -117
-99 -5 82 95 -1 -19 -76 -93
-77 7 7 -127 1 82 -84 -3
42 7 -104 109 1 74 3 -20
89 4 119 -8 6 109 -87 81
-91 2 109 -127 -119 118 -108 -11
-8 -122 107 -97 80 1 5 -93
-14 127 108 -73 -9 117 -89 -12
2 4 -94 22 -9 13 -2 5
30 90 117 127 106 12 0 -127
-5 -72 82 -93 -16 -91 -7 -74
-96 -4 -10 127 -8 -5 -100 -81
47 99 1 15 -4 6 -83 -5
-127 -82 5 9 9 -6 -13 -3
-8 18 19 124 86 -10 -87 74
127 94 0 23 -103 12 -82 -10
-100 2 11 6 0 -126 -5 88
1 121 5 95 -82 -112 -7 127

model_20/quant_block_6_depthwise/depthwise;model_20/quant_block_6_depthwise/LastValueQuant/FakeQuantWithMinMaxVarsPerChannel i1 [1, 3, 3, 96]
00000000: f740 5840 0400 342f 03c1 c817 e5e8 c5c1
00000010: e417 3d38 264a dbe3 f6eb f393 e93e 02ed
00000020: c7f8 bdb1 b1f1 a602 0d06 49e6 da0f b11f
00000030: f953 c7f1 ba49 0bdd b947 b90d c9d5 bb2f
00000040: c7ee e335 a650 f635 4cf9 cabb 43b2 2af6
00000050: 0b12 153c 14b1 6369 f824 a52a e024 d70d
00000060: 0bfc f6bd 1a3c d63b fd32 1a34 c836 00dd
00000070: b0d6 51f8 ba41 d9f6 012b 0320 cfaf e1d6
00000080: 18f0 a301 e2bc 1550 0a4a 269d feeb 4ae9
00000090: fd37 e703 cac0 d9e8 5b40 ed8a fcf6 f0cf
000000a0: c833 4fa9 d1b2 1ad6 e22e fbf0 fce3 46ef
000000b0: 40dc ba39 cad0 21c4 0308 1236 6925 ddea
000000c0: daeb f5ec ba28 e626 be41 db48 3300 b34b
000000d0: 01c3 af42 fbb0 dbc7 0da6 0110 fdd3 0ec6
000000e0: 1aba e7e0 c808 f821 f90d e352 3e20 bb1a
000000f0: 0b47 d827 e125 da3d f325 a3dd ceee f7e9
-9 64 88 64 4 0 52 47
3 -63 -56 23 -27 -24 -59 -63
-28 23 61 56 38 74 -37 -29
-10 -21 -13 -109 -23 62 2 -19
-57 -8 -67 -79 -79 -15 -90 2
13 6 73 -26 -38 15 -79 31
-7 83 -57 -15 -70 73 11 -35
-71 71 -71 13 -55 -43 -69 47
-57 -18 -29 53 -90 80 -10 53
76 -7 -54 -69 67 -78 42 -10
11 18 21 60 20 -79 99 105
-8 36 -91 42 -32 36 -41 13
11 -4 -10 -67 26 60 -42 59
-3 50 26 52 -56 54 0 -35
-80 -42 81 -8 -70 65 -39 -10
1 43 3 32 -49 -81 -31 -42
24 -16 -93 1 -30 -68 21 80
10 74 38 -99 -2 -21 74 -23
-3 55 -25 3 -54 -64 -39 -24
91 64 -19 -118 -4 -10 -16 -49
-56 51 79 -87 -47 -78 26 -42
-30 46 -5 -16 -4 -29 70 -17
64 -36 -70 57 -54 -48 33 -60
3 8 18 54 105 37 -35 -22
-38 -21 -11 -20 -70 40 -26 38
-66 65 -37 72 51 0 -77 75
1 -61 -81 66 -5 -80 -37 -57
13 -90 1 16 -3 -45 14 -58
26 -70 -25 -32 -56 8 -8 33
-7 13 -29 82 62 32 -69 26
11 71 -40 39 -31 37 -38 61
-13 37 -93 -35 -50 -18 -9 -23

model_20/quant_block_6_project/Conv2D;model_20/quant_block_6_project/LastValueQuant/FakeQuantWithMinMaxVarsPerChannel i1 [24, 1, 1, 96]
00000000: fac1 ea9b 148a afc6 ea7b 9e7f fdfd be03
00000010: c909 b15f d1f9 eec5 a863 b510 0300 e49e
00000020: fbca c3fc 6544 15fa 4c62 c809 0a47 c16b
00000030: 06f8 0176 020f c0fc 0701 93f8 a5ff 0701
00000040: c5a0 54f7 6c47 01f6 5aa1 6358 65fd f60f
00000050: fbf7 6de8 4a09 3708 0f4b ac36 10f1 feff
00000060: a603 5bff 0f2f 7602 abfd bf0b 9559 b5fd
00000070: 690c a8fb 0154 6598 50f9 c95c 6807 09ad
00000080: 5306 5b01 bbb8 4e4a 0803 0fa3 03a7 5dae
00000090: c707 5e37 810b 126c eaf2 56be 5ff3 ff0a
000000a0: f206 460a fa8d 5500 05b9 f6f3 0f01 05ae
000000b0: f8ac 689f 0c48 6851 60c3 faf8 f308 a2b1
000000c0: 05b8 06b1 5bc0 05bf a0ff 0e3b 0dc0 3d09
000000d0: 86fe fcf5 0668 f886 ba36 4db2 9b5c 0a7f
000000e0: a39e f700 3afa 5efd 5ffc fb99 0307 9a99
000000f0: fafc 49fd 0300 f303 fc43 fe43 ed64 faaa
-6 -63 -22 -101 20 -118 -81 -58
-22 123 -98 127 -3 -3 -66 3
-55 9 -79 95 -47 -7 -18 -59
-88 99 -75 16 3 0 -28 -98
-5 -54 -61 -4 101 68 21 -6
76 98 -56 9 10 71 -63 107
6 -8 1 118 2 15 -64 -4
7 1 -109 -8 -91 -1 7 1
-59 -96 84 -9 108 71 1 -10
90 -95 99 88 101 -3 -10 15
-5 -9 109 -24 74 9 55 8
15 75 -84 54 16 -15 -2 -1
-90 3 91 -1 15 47 118 2
-85 -3 -65 11 -107 89 -75 -3
105 12 -88 -5 1 84 101 -104
80 -7 -55 92 104 7 9 -83
83 6 91 1 -69 -72 78 74
8 3 15 -93 3 -89 93 -82
-57 7 94 55 -127 11 18 108
-22 -14 86 -66 95 -13 -1 10
-14 6 70 10 -6 -115 85 0
5 -71 -10 -13 15 1 5 -82
-8 -84 104 -97 12 72 104 81
96 -61 -6 -8 -13 8 -94 -79
5 -72 6 -79 91 -64 5 -65
-96 -1 14 59 13 -64 61 9
-122 -2 -4 -11 6 104 -8 -122
-70 54 77 -78 -101 92 10 127
-93 -98 -9 0 58 -6 94 -3
95 -4 -5 -103 3 7 -102 -103
-6 -4 73 -3 3 0 -13 3
-4 67 -2 67 -19 100 -6 -86

model_20/quant_block_7_expand/Conv2D;model_20/quant_block_7_expand/LastValueQuant/FakeQuantWithMinMaxVarsPerChannel i1 [144, 1, 1, 24]
00000000: f9b9 f7fc b75c fefb 05ac f0f6 8109 0db9
00000010: 4efb 65f8 09fc 05fe c69c 5781 926d fd45
00000020: fc03 fdf9 4ef9 0a0b ffbf 00b0 8cf9 c55b
00000030: 6741 0df7 008a 10fe 7ef6 445d 557f 0b02
00000040: 03fe 07a3 c300 b605 4d52 f40b be75 fe4c
00000050: 0865 f27f 0913 3b03 f1fa ffb5 baab 0215
00000060: 4652 45c8 9dd1 c381 ffbe fd63 497e 9303
00000070: b86a 4708 0208 0001 f999 a8a6 0804 08a0
00000080: ae57 c405 f77f 999a 6a0b 9e0f cd0f 9a58
00000090: f009 709d fdf9 ec54 fb0a 4b00 ab3a 61b9
000000a0: f458 3f81 862a 00f7 4315 4c99 6005 7f63
000000b0: 19f8 a00e fd06 f6bd 4991 5445 2bba f3c1
000000c0: 534f 458f 9e5c 5b00 7f0e 8d01 ea05 03c6
000000d0: 1df5 0b45 fdc9 a60f a891 5c7d 0802 4854
000000e0: 0fff 337f ce98 5605 03a6 10a8 a1f9 0508
000000f0: 0e04 ef48 c046 000a fa02 0810 00fd 3453
-7 -71 -9 -4 -73 92 -2 -5
5 -84 -16 -10 -127 9 13 -71
78 -5 101 -8 9 -4 5 -2
-58 -100 87 -127 -110 109 -3 69
-4 3 -3 -7 78 -7 10 11
-1 -65 0 -80 -116 -7 -59 91
103 65 13 -9 0 -118 16 -2
126 -10 68 93 85 127 11 2
3 -2 7 -93 -61 0 -74 5
77 82 -12 11 -66 117 -2 76
8 101 -14 127 9 19 59 3
-15 -6 -1 -75 -70 -85 2 21
70 82 69 -56 -99 -47 -61 -127
-1 -66 -3 99 73 126 -109 3
-72 106 71 8 2 8 0 1
-7 -103 -88 -90 8 4 8 -96
-82 87 -60 5 -9 127 -103 -102
106 11 -98 15 -51 15 -102 88
-16 9 112 -99 -3 -7 -20 84
-5 10 75 0 -85 58 97 -71
-12 88 63 -127 -122 42 0 -9
67 21 76 -103 96 5 127 99
25 -8 -96 14 -3 6 -10 -67
73 -111 84 69 43 -70 -13 -63
83 79 69 -113 -98 92 91 0
127 14 -115 1 -22 5 3 -58
29 -11 11 69 -3 -55 -90 15
-88 -111 92 125 8 2 72 84
15 -1 51 127 -50 -104 86 5
3 -90 16 -88 -95 -7 5 8
14 4 -17 72 -64 70 0 10
-6 2 8 16 0 -3 52 83

model_20/quant_block_7_depthwise/depthwise;model_20/quant_block_7_depthwise/LastValueQuant/FakeQuantWithMinMaxVarsPerChannel i1 [1, 3, 3, 144]
00000000: 3512 1d05 bae5 f6d7 250f 36a4 124f b3dd
00000010: 14e9 38ef 07de 28fe e142 0d37 d424 d8dc
00000020: cd6a fb47 e4dc 4446 eaf2 3692 dafc 2e19
00000030: fcae f202 1753 eaf2 1805 3fe6 d7b1 3425
00000040: e9a9 53e4 eae5 061b 2ef3 d242 e92e 2bea
00000050: d00a 2dec 39bc 232b cb45 b7cb dffa 000a
00000060: a534 cb02 12f0 ec32 d5c5 1725 1509 0fe2
00000070: 24b5 dc2f 11cf 19a8 3123 0acc 0120 b02b
00000080: c7ee ece7 1928 0900 154d 262f 4bec f8c6
00000090: b448 1816 283f 1fd8 47e7 ad11 d309 cce5
000000a0: daed ca5c f5c9 c2c4 4a25 1bef b550 da3f
000000b0: e711 c2d4 1c13 04f4 2aea 3727 120c daee
000000c0: 46e3 e7dc 02e4 1933 39f1 ecb8 dacd d80e
000000d0: c125 0a2d 0f3d a83c 1bca edf3 d915 f4c3
000000e0: 1734 45e2 d81d 1418 f539 d517 f035 96fb
000000f0: e9f1 31db 02c7 0fb2 230f b417 4f06 06e8
53 18 29 5 -70 -27 -10 -41
37 15 54 -92 18 79 -77 -35
20 -23 56 -17 7 -34 40 -2
-31 66 13 55 -44 36 -40 -36
-51 106 -5 71 -28 -36 68 70
-22 -14 54 -110 -38 -4 46 25
-4 -82 -14 2 23 83 -22 -14
24 5 63 -26 -41 -79 52 37
-23 -87 83 -28 -22 -27 6 27
46 -13 -46 66 -23 46 43 -22
-48 10 45 -20 57 -68 35 43
-53 69 -73 -53 -33 -6 0 10
-91 52 -53 2 18 -16 -20 50
-43 -59 23 37 21 9 15 -30
36 -75 -36 47 17 -49 25 -88
49 35 10 -52 1 32 -80 43
-57 -18 -20 -25 25 40 9 0
21 77 38 47 75 -20 -8 -58
-76 72 24 22 40 63 31 -40
71 -25 -83 17 -45 9 -52 -27
-38 -19 -54 92 -11 -55 -62 -60
74 37 27 -17 -75 80 -38 63
-25 17 -62 -44 28 19 4 -12
42 -22 55 39 18 12 -38 -18
70 -29 -25 -36 2 -28 25 51
57 -15 -20 -72 -38 -51 -40 14
-63 37 10 45 15 61 -88 60
27 -54 -19 -13 -39 21 -12 -61
23 52 69 -30 -40 29 20 24
-11 57 -43 23 -16 53 -106 -5
-23 -15 49 -37 2 -57 15 -78
35 15 -76 23 79 6 6 -24

model_20/quant_block_7_project/Conv2D;model_20/quant_block_7_project/LastValueQuant/FakeQuantWithMinMaxVarsPerChannel i1 [24, 1, 1, 144]
00000000: 4337 c30a 03b7 4205 fe52 ab00 045f 3c06
00000010: f8fd 0109 aafc 5e99 f046 463f 1303 f5f1
00000020: 5946 6a09 ed4f c565 4d05 02cc b4fe 5811
00000030: 01f6 0f7a 0e52 0064 0dfd 4649 3931 b70b
00000040: 2c3e 690a 0558 fa00 3f04 f20c f55c 63f5
00000050: 7fc9 f9a0 c3b9 0256 430d 583f af6c 5a05
00000060: ccc3 0c3b fe0a 8ccb fa46 bb01 da67 4a13
00000070: d2ad 8402 a104 ad6e 0b06 953c c718 ae06
00000080: fbaa 008e 2c56 0264 ff08 ca64 77ff a744
00000090: fca0 0bac 405c fbfe 619a 9e10 0205 00af
000000a0: feff b6e9 e197 fee9 0100 fb5c 16ff 6105
000000b0: 6e66 040a 3a9e 522f 0340 f005 df06 c444
000000c0: af65 44fc f9ba f1af fe75 fdb2 3a57 0c10
000000d0: 63a6 4313 65fe f610 0904 9ab8 fb4d 62bf
000000e0: 93fe 0274 54b0 f1e8 8af0 06a4 8d4b 0a1e
000000f0: 0113 ae81 01fe 0405 020e f7e9 0408 54ff
67 55 -61 10 3 -73 66 5
-2 82 -85 0 4 95 60 6
-8 -3 1 9 -86 -4 94 -103
-16 70 70 63 19 3 -11 -15
89 70 106 9 -19 79 -59 101
77 5 2 -52 -76 -2 88 17
1 -10 15 122 14 82 0 100
13 -3 70 73 57 49 -73 11
44 62 105 10 5 88 -6 0
63 4 -14 12 -11 92 99 -11
127 -55 -7 -96 -61 -71 2 86
67 13 88 63 -81 108 90 5
-52 -61 12 59 -2 10 -116 -53
-6 70 -69 1 -38 103 74 19
-46 -83 -124 2 -95 4 -83 110
11 6 -107 60 -57 24 -82 6
-5 -86 0 -114 44 86 2 100
-1 8 -54 100 119 -1 -89 68
-4 -96 11 -84 64 92 -5 -2
97 -102 -98 16 2 5 0 -81
-2 -1 -74 -23 -31 -105 -2 -23
1 0 -5 92 22 -1 97 5
110 102 4 10 58 -98 82 47
3 64 -16 5 -33 6 -60 68
-81 101 68 -4 -7 -70 -15 -81
-2 117 -3 -78 58 87 12 16
99 -90 67 19 101 -2 -10 16
9 4 -102 -72 -5 77 98 -65
-109 -2 2 116 84 -80 -15 -24
-118 -16 6 -92 -115 75 10 30
1 19 -82 -127 1 -2 4 5
2 14 -9 -23 4 8 84 -1

model_20/quant_block_8_expand/Conv2D;model_20/quant_block_8_expand/LastValueQuant/FakeQuantWithMinMaxVarsPerChannel i1 [144, 1, 1, 24]
00000000: fcc7 bf10 057a 6581 0a06 4090 0869 f1a1
00000010: a464 fc7d ae00 a406 020a 42fb 8940 7492
00000020: 5cf9 b258 9a38 0e79 2b81 f949 feab f508
00000030: 0a65 9802 1200 0e50 303e f902 a807 4d81
00000040: 7d63 f3c9 9a74 c962 b2c8 9ffe fd61 f66e
00000050: 03ff 2c04 f85d 527f ff71 6cfd 0261 d6ad
00000060: 810b 09af bcfe f0fc 02ff 9e85 f4fd 0816
00000070: 50a3 4885 5ffb be0a fbb8 09cc a5fe 02f7
00000080: 0d7f 3af6 4666 0506 86c6 0587 7605 620a
00000090: 759a a796 500a 0b81 0074 b7fa f4f0 4e61
000000a0: 7003 0700 5f7a 100b 0207 e8ea 6c9d 0674
000000b0: fd83 3f66 21f9 f481 0ef2 86fe 6b5e fc02
000000c0: 67fb 9f01 fbfa 6568 fe7f 0208 5005 0d5d
000000d0: ff90 9be7 f93d fdf4 9b8c d204 089a fbb5
000000e0: 0c4d 4e81 390d 3c02 6d8e fef5 030d 049c
000000f0: fe70 f89b 487f 55a5 0eaa faef 5eff 8204
-4 -57 -65 16 5 122 101 -127
10 6 64 -112 8 105 -15 -95
-92 100 -4 125 -82 0 -92 6
2 10 66 -5 -119 64 116 -110
92 -7 -78 88 -102 56 14 121
43 -127 -7 73 -2 -85 -11 8
10 101 -104 2 18 0 14 80
48 62 -7 2 -88 7 77 -127
125 99 -13 -55 -102 116 -55 98
-78 -56 -97 -2 -3 97 -10 110
3 -1 44 4 -8 93 82 127
-1 113 108 -3 2 97 -42 -83
-127 11 9 -81 -68 -2 -16 -4
2 -1 -98 -123 -12 -3 8 22
80 -93 72 -123 95 -5 -66 10
-5 -72 9 -52 -91 -2 2 -9
13 127 58 -10 70 102 5 6
-122 -58 5 -121 118 5 98 10
117 -102 -89 -106 80 10 11 -127
0 116 -73 -6 -12 -16 78 97
112 3 7 0 95 122 16 11
2 7 -24 -22 108 -99 6 116
-3 -125 63 102 33 -7 -12 -127
14 -14 -122 -2 107 94 -4 2
103 -5 -97 1 -5 -6 101 104
-2 127 2 8 80 5 13 93
-1 -112 -101 -25 -7 61 -3 -12
-101 -116 -46 4 8 -102 -5 -75
12 77 78 -127 57 13 60 2
109 -114 -2 -11 3 13 4 -100
-2 112 -8 -101 72 127 85 -91
14 -86 -6 -17 94 -1 -126 4

model_20/quant_block_8_depthwise/depthwise;model_20/quant_block_8_depthwise/LastValueQuant/FakeQuantWithMinMaxVarsPerChannel i1 [1, 3, 3, 144]
00000000: 4cf4 003e 101f 2bd8 d53b a3cd f0f0 3ce9
00000010: 9ff2 d51d 1fe6 e9f3 3f0e 56e7 acd3 af91
00000020: e651 b032 e92f 4e10 d7ac 2bdf 07f8 ef32
00000030: 3a59 0b49 39e1 c42a 3219 0506 3701 4723
00000040: b537 e9b1 e3e6 1e10 3932 0a31 9c55 df48
00000050: d41b 2f35 dbe7 d348 5e50 efe1 ce2a fac7
00000060: 4207 1cff eb35 dab6 e6f7 bb2d 3bd4 2ecb
00000070: 1dec bce2 ebd2 c0d5 0c39 23f5 f84b 0336
00000080: f6cc c32d dec3 535b 15bc 40f5 0f9e fdd2
00000090: e5a7 22bb a2dd 2540 1f0c 0eef b6d8 ce46
000000a0: cae1 ca2d 23e8 fa04 d107 dfde cd1e aadd
000000b0: bbb5 30e9 baee 3ce0 1a2c c1ec affd 2074
000000c0: f813 b8d8 a957 28cd 2ccb b629 3112 0cb6
000000d0: f519 1728 c3d4 311b be22 b5ff db0d 3200
000000e0: 02e5 054b ee50 13e7 02c7 02e7 c002 282e
000000f0: 33da 38e4 8f59 120a 3fe3 0a33 de60 08bb
76 -12 0 62 16 31 43 -40
-43 59 -93 -51 -16 -16 60 -23
-97 -14 -43 29 31 -26 -23 -13
63 14 86 -25 -84 -45 -81 -111
-26 81 -80 50 -23 47 78 16
-41 -84 43 -33 7 -8 -17 50
58 89 11 73 57 -31 -60 42
50 25 5 6 55 1 71 35
-75 55 -23 -79 -29 -26 30 16
57 50 10 49 -100 85 -33 72
-44 27 47 53 -37 -25 -45 72
94 80 -17 -31 -50 42 -6 -57
66 7 28 -1 -21 53 -38 -74
-26 -9 -69 45 59 -44 46 -53
29 -20 -68 -30 -21 -46 -64 -43
12 57 35 -11 -8 75 3 54
-10 -52 -61 45 -34 -61 83 91
21 -68 64 -11 15 -98 -3 -46
-27 -89 34 -69 -94 -35 37 64
31 12 14 -17 -74 -40 -50 70
-54 -31 -54 45 35 -24 -6 4
-47 7 -33 -34 -51 30 -86 -35
-69 -75 48 -23 -70 -18 60 -32
26 44 -63 -20 -81 -3 32 116
-8 19 -72 -40 -87 87 40 -51
44 -53 -74 41 49 18 12 -74
-11 25 23 40 -61 -44 49 27
-66 34 -75 -1 -37 13 50 0
2 -27 5 75 -18 80 19 -25
2 -57 2 -25 -64 2 40 46
51 -38 56 -28 -113 89 18 10
63 -29 10 51 -34 96 8 -69

model_20/quant_block_8_project/Conv2D;model_20/quant_block_8_project/LastValueQuant/FakeQuantWithMinMaxVarsPerChannel i1 [24, 1, 1, 144]
00000000: 05fb 8168 034e f3fc 5015 0273 ab51 690d
00000010: d0bc f108 660a 7716 f7fd 8e01 3eff 5904
00000020: fd4d eea8 fff4 d6f9 08a7 6f08 54c7 0c05
00000030: c070 ff05 9606 08e9 0a04 a804 eb3e 6577
00000040: fef6 2afb 0751 fafb 9bef b514 f65c ecfb
00000050: 0044 0301 a700 11f5 9d9e 0477 029c 0500
00000060: 06f5 788b f30f 88d1 fba9 110b 0eae ef78
00000070: fd63 10ab 5288 97be 7210 9365 4af4 fd14
00000080: b0f9 594d fd00 6ef7 0f00 307c 50ab f7fe
00000090: 9d0b 0401 636a 3ffd 9007 4c46 f703 6305
000000a0: f5f0 fd5e 5d0e f76e 4c65 a0bb 54f8 f405
000000b0: 583d 13f4 fb12 f758 0500 ff97 f8a9 f8c1
000000c0: ff01 8df5 c7b4 ad02 4b44 f74c a80e 0aac
000000d0: 0103 016a a476 a3f3 4df3 bf67 aa03 bf9b
000000e0: fff1 bff8 005e 9508 f857 b1ec 0c92 fb29
000000f0: bdb8 f695 fa03 0a9f aefc ff04 09b9 f308
5 -5 -127 104 3 78 -13 -4
80 21 2 115 -85 81 105 13
-48 -68 -15 8 102 10 119 22
-9 -3 -114 1 62 -1 89 4
-3 77 -18 -88 -1 -12 -42 -7
8 -89 111 8 84 -57 12 5
-64 112 -1 5 -106 6 8 -23
10 4 -88 4 -21 62 101 119
-2 -10 42 -5 7 81 -6 -5
-101 -17 -75 20 -10 92 -20 -5
0 68 3 1 -89 0 17 -11
-99 -98 4 119 2 -100 5 0
6 -11 120 -117 -13 15 -120 -47
-5 -87 17 11 14 -82 -17 120
-3 99 16 -85 82 -120 -105 -66
114 16 -109 101 74 -12 -3 20
-80 -7 89 77 -3 0 110 -9
15 0 48 124 80 -85 -9 -2
-99 11 4 1 99 106 63 -3
-112 7 76 70 -9 3 99 5
-11 -16 -3 94 93 14 -9 110
76 101 -96 -69 84 -8 -12 5
88 61 19 -12 -5 18 -9 88
5 0 -1 -105 -8 -87 -8 -63
-1 1 -115 -11 -57 -76 -83 2
75 68 -9 76 -88 14 10 -84
1 3 1 106 -92 118 -93 -13
77 -13 -65 103 -86 3 -65 -101
-1 -15 -65 -8 0 94 -107 8
-8 87 -79 -20 12 -110 -5 41
-67 -72 -10 -107 -6 3 10 -97
-82 -4 -1 4 9 -71 -13 8

model_20/quant_block_9_expand/Conv2D;model_20/quant_block_9_expand/LastValueQuant/FakeQuantWithMinMaxVarsPerChannel i1 [144, 1, 1, 24]
00000000: 41ea 860e 0161 61f4 0403 090f f981 05fe
00000010: 6e07 036d b193 4ffe 393f 81c7 3d04 f8ef
00000020: 3e63 5304 00d1 fb63 ad57 d805 0098 390e
00000030: fdfa 0c4e 40b7 05f4 f807 0b0a 8f0d 059b
00000040: 6056 adf9 7f09 9ff8 f6f5 74af c7f6 5481
00000050: f6fb ed8d 6e63 3a06 5f7e fcaa 0302 09b5
00000060: 7c49 0a9e 0f0b 0100 5281 0b06 10f8 4871
00000070: b916 0a02 5b84 b2f5 76f8 98f0 aa01 0953
00000080: 0433 61f9 b881 efeb 870d eaff 3f4a 0d83
00000090: 04b4 5a08 665d 6a7f 620c bdf2 0a8a 118d
000000a0: 8403 1260 01a4 ab75 99fd f4a9 fc4d 0478
000000b0: 63f0 f101 ed09 ef12 fe75 7f0c 8b08 15fb
000000c0: 4258 d7fe 2806 b291 f651 9af8 5804 7f62
000000d0: b383 afe5 05b8 988a 0c03 9efb 73f6 0099
000000e0: 0104 6d7f 0603 b167 f552 fd73 9955 f947
000000f0: 8870 0655 ff02 a2b5 fe9a 00ff b2f8 6158
65 -22 -122 14 1 97 97 -12
4 3 9 15 -7 -127 5 -2
110 7 3 109 -79 -109 79 -2
57 63 -127 -57 61 4 -8 -17
62 99 83 4 0 -47 -5 99
-83 87 -40 5 0 -104 57 14
-3 -6 12 78 64 -73 5 -12
-8 7 11 10 -113 13 5 -101
96 86 -83 -7 127 9 -97 -8
-10 -11 116 -81 -57 -10 84 -127
-10 -5 -19 -115 110 99 58 6
95 126 -4 -86 3 2 9 -75
124 73 10 -98 15 11 1 0
82 -127 11 6 16 -8 72 113
-71 22 10 2 91 -124 -78 -11
118 -8 -104 -16 -86 1 9 83
4 51 97 -7 -72 -127 -17 -21
-121 13 -22 -1 63 74 13 -125
4 -76 90 8 102 93 106 127
98 12 -67 -14 10 -118 17 -115
-124 3 18 96 1 -92 -85 117
-103 -3 -12 -87 -4 77 4 120
99 -16 -15 1 -19 9 -17 18
-2 117 127 12 -117 8 21 -5
66 88 -41 -2 40 6 -78 -111
-10 81 -102 -8 88 4 127 98
-77 -125 -81 -27 5 -72 -104 -118
12 3 -98 -5 115 -10 0 -103
1 4 109 127 6 3 -79 103
-11 82 -3 115 -103 85 -7 71
-120 112 6 85 -1 2 -94 -75
-2 -102 0 -1 -78 -8 97 88

model_20/quant_block_9_depthwise/depthwise;model_20/quant_block_9_depthwise/LastValueQuant/FakeQuantWithMinMaxVarsPerChannel i1 [1, 3, 3, 144]
00000000: 070a 1901 1003 02c9 283d 89d2 fc6e 48f4
00000010: 0f0e 5105 1b11 16e9 02d1 50ed 2b1a b7c5
00000020: b5c2 50f9 1724 eca2 3463 5113 9e24 f8dd
00000030: 60b3 4210 8523 c4dd 28ce a2cd e1c2 3cd0
00000040: 13fc 1030 0b05 32ff af3f 9d02 b9f6 1137
00000050: eec0 19ec e4b5 cf4f 082e 19e0 e303 ddb3
00000060: c004 decd aac9 ca1b 8cc5 dfa6 3102 f1d8
00000070: 463c dc01 1d54 44e2 d423 5006 443a 3de3
00000080: d55c 3039 b9be badd 1034 1344 bdd0 7b62
00000090: 2edc 3cb5 d2af 4a5b edbc 0ad9 b1e2 6a05
000000a0: ddbc e633 eec1 ef53 0340 b1cb 077e f141
000000b0: cf4c c842 1add c4e1 d2eb cf42 d7ef 56c9
000000c0: 0ff7 f821 07ad c530 e9d0 f419 d88f 38b8
000000d0: e4d1 e9b3 5357 f415 363b debe b246 2cfc
000000e0: dc18 df29 121c d721 2ed5 ebf3 4fd6 0757
000000f0: 0228 351f fb2c c43f 11db 24a4 43b5 13e0
7 10 25 1 16 3 2 -55
40 61 -119 -46 -4 110 72 -12
15 14 81 5 27 17 22 -23
2 -47 80 -19 43 26 -73 -59
-75 -62 80 -7 23 36 -20 -94
52 99 81 19 -98 36 -8 -35
96 -77 66 16 -123 35 -60 -35
40 -50 -94 -51 -31 -62 60 -48
19 -4 16 48 11 5 50 -1
-81 63 -99 2 -71 -10 17 55
-18 -64 25 -20 -28 -75 -49 79
8 46 25 -32 -29 3 -35 -77
-64 4 -34 -51 -86 -55 -54 27
-116 -59 -33 -90 49 2 -15 -40
70 60 -36 1 29 84 68 -30
-44 35 80 6 68 58 61 -29
-43 92 48 57 -71 -66 -70 -35
16 52 19 68 -67 -48 123 98
46 -36 60 -75 -46 -81 74 91
-19 -68 10 -39 -79 -30 106 5
-35 -68 -26 51 -18 -63 -17 83
3 64 -79 -53 7 126 -15 65
-49 76 -56 66 26 -35 -60 -31
-46 -21 -49 66 -41 -17 86 -55
15 -9 -8 33 7 -83 -59 48
-23 -48 -12 25 -40 -113 56 -72
-28 -47 -23 -77 83 87 -12 21
54 59 -34 -66 -78 70 44 -4
-36 24 -33 41 18 28 -41 33
46 -43 -21 -13 79 -42 7 87
2 40 53 31 -5 44 -60 63
17 -37 36 -92 67 -75 19 -32

model_20/quant_block_9_project/Conv2D;model_20/quant_block_9_project/LastValueQuant/FakeQuantWithMinMaxVarsPerChannel i1 [24, 1, 1, 144]
00000000: 2f66 f84c f810 47bc 49cc d14f 025c 81bc
00000010: 6000 0544 c953 b536 34a0 0343 0959 b5f7
00000020: 46f8 aa0e 0301 0008 a53b f4fa 2ab3 f54f
00000030: b59f f3ba b556 0006 6b0a a1c3 05bd 5605
00000040: 5138 3f4a 36d0 46c4 bd0d 1840 36fb 085e
00000050: 0ff5 d2ff 018f fbf9 00b5 bf53 5b5f fdb6
00000060: 06c7 0604 fd62 01fa 10bd 9ca2 f070 0b43
00000070: ca0a d2f7 a208 efff fc6a be26 5d4f f6bd
00000080: f50f 58b3 3b0c fc93 fc09 a5a3 1b0b 5af1
00000090: 02f8 ae02 a668 0db1 09f8 02f8 f99f b1c5
000000a0: fdff 3b38 3d03 0404 33fe fd54 4fa7 9ff3
000000b0: 6bc7 81be 00c3 fb0e b0b3 725d 052a 90ce
000000c0: b40f 06f9 62ff 59f9 0739 a2fc 3954 5702
000000d0: 8a54 0541 61f8 feb9 4200 0101 0bb9 f5f9
000000e0: 4c0d 4805 fe9f ba39 023f feb9 0403 3a03
000000f0: 574d 3902 5449 1002 eeed 0eb5 fe8d 089b
47 102 -8 76 -8 16 71 -68
73 -52 -47 79 2 92 -127 -68
96 0 5 68 -55 83 -75 54
52 -96 3 67 9 89 -75 -9
70 -8 -86 14 3 1 0 8
-91 59 -12 -6 42 -77 -11 79
-75 -97 -13 -70 -75 86 0 6
107 10 -95 -61 5 -67 86 5
81 56 63 74 54 -48 70 -60
-67 13 24 64 54 -5 8 94
15 -11 -46 -1 1 -113 -5 -7
0 -75 -65 83 91 95 -3 -74
6 -57 6 4 -3 98 1 -6
16 -67 -100 -94 -16 112 11 67
-54 10 -46 -9 -94 8 -17 -1
-4 106 -66 38 93 79 -10 -67
-11 15 88 -77 59 12 -4 -109
-4 9 -91 -93 27 11 90 -15
2 -8 -82 2 -90 104 13 -79
9 -8 2 -8 -7 -97 -79 -59
-3 -1 59 56 61 3 4 4
51 -2 -3 84 79 -89 -97 -13
107 -57 -127 -66 0 -61 -5 14
-80 -77 114 93 5 42 -112 -50
-76 15 6 -7 98 -1 89 -7
7 57 -94 -4 57 84 87 2
-118 84 5 65 97 -8 -2 -71
66 0 1 1 11 -71 -11 -7
76 13 72 5 -2 -97 -70 57
2 63 -2 -71 4 3 58 3
87 77 57 2 84 73 16 2
-18 -19 14 -75 -2 -115 8 -101

model_20/quant_block_10_expand/Conv2D;model_20/quant_block_10_expand/LastValueQuant/FakeQuantWithMinMaxVarsPerChannel i1 [144, 1, 1, 24]
00000000: 7585 41be c497 030d ed57 5cff fcbe 010b
00000010: cf07 f2aa 6c64 4f81 9cff 3660 932f fd08
00000020: 0d66 02f5 b0a6 7ff6 0603 0206 0750 02cb
00000030: 11ba 00f8 5159 0006 0afc c275 4840 c4fd
00000040: fdc1 6d0c 8106 b8b3 4f04 05f4 0004 96fb
00000050: 6d7f fa00 1503 0500 3e02 fafc fcbe 91f8
00000060: 9904 0d06 9928 ac63 13ff 62f4 b070 faf8
00000070: 7f02 fc5f 6662 0a09 8c12 998e e87c 7ff7
00000080: 4e85 1000 60aa 9215 007f 8347 e7bb 727a
00000090: ff15 f251 e50b 04d5 f27f 5c1b 3e06 3296
000000a0: f883 a0f0 e308 fe0d 513d 1103 0bec ea40
000000b0: b2ba 6f01 aefb 7ffd 8652 9af2 fdf7 fda4
000000c0: 8966 fa47 fc94 5c4e 0aaf a6f3 4cfd 07bf
000000d0: 05aa ec12 af7f aeee a7c8 fe40 4ecd 7014
000000e0: b3fd fafa 0bf5 698a 7f43 efc7 05f7 04b3
000000f0: 41f3 f7fe 8a01 fa81 fe94 0850 9a01 48fb
117 -123 65 -66 -60 -105 3 13
-19 87 92 -1 -4 -66 1 11
-49 7 -14 -86 108 100 79 -127
-100 -1 54 96 -109 47 -3 8
13 102 2 -11 -80 -90 127 -10
6 3 2 6 7 80 2 -53
17 -70 0 -8 81 89 0 6
10 -4 -62 117 72 64 -60 -3
-3 -63 109 12 -127 6 -72 -77
79 4 5 -12 0 4 -106 -5
109 127 -6 0 21 3 5 0
62 2 -6 -4 -4 -66 -111 -8
-103 4 13 6 -103 40 -84 99
19 -1 98 -12 -80 112 -6 -8
127 2 -4 95 102 98 10 9
-116 18 -103 -114 -24 124 127 -9
78 -123 16 0 96 -86 -110 21
0 127 -125 71 -25 -69 114 122
-1 21 -14 81 -27 11 4 -43
-14 127 92 27 62 6 50 -106
-8 -125 -96 -16 -29 8 -2 13
81 61 17 3 11 -20 -22 64
-78 -70 111 1 -82 -5 127 -3
-122 82 -102 -14 -3 -9 -3 -92
-119 102 -6 71 -4 -108 92 78
10 -81 -90 -13 76 -3 7 -65
5 -86 -20 18 -81 127 -82 -18
-89 -56 -2 64 78 -51 112 20
-77 -3 -6 -6 11 -11 105 -118
127 67 -17 -57 5 -9 4 -77
65 -13 -9 -2 -118 1 -6 -127
-2 -108 8 80 -102 1 72 -5
