eIQ_model/mnistwhiteblack_classification-performance-mcu-2024-10-01T13-58-16.562Z_in-float32_out-float32_channel_qat_converted.tflite (tflite, 430240 bytes, 2 tensors)

NeutronMicrocode u1 [7544]
0	0x6e	110
1	0x4d	77
2	0x43	67
3	0x64	100
4	0x1b	27
5	0x3f	63
6	0x93	147
7	0x1c	28
8	0x28	40
9	0x1d	29
10	0x00	0
11	0x00	0
12	0x00	0
13	0x00	0
14	0x00	0
15	0x00	0
16	0x28	40
17	0x1d	29
18	0x00	0
19	0x00	0
20	0x08	8
21	0x00	0
22	0x00	0
23	0x00	0
24	0x78	120
25	0x1d	29
26	0x00	0
27	0x00	0
28	0x54	84
29	0x69	105
30	0x06	6
31	0x00	0
32	0x01	1
33	0x00	0
34	0x00	0
35	0x00	0
36	0x00	0
37	0x3c	60
38	0x00	0
39	0x00	0
40	0x00	0
41	0x00	0
42	0x00	0
43	0x00	0
44	0x01	1
45	0x00	0
46	0x00	0
47	0x00	0
48	0x01	1
49	0x00	0
50	0x00	0
51	0x00	0
52	0x41	65
53	0x00	0
54	0x00	0
55	0x00	0
56	0xc0	192
57	0x06	6
58	0x00	0
59	0x00	0
60	0x00	0
61	0x00	0
62	0x00	0
63	0x00	0
64	0x03	3
65	0x05	5
66	0x04	4
67	0x00	0
68	0x01	1
69	0x01	1
70	0x01	1
71	0x00	0
72	0x02	2
73	0x01	1
74	0x00	0
75	0x10	16
76	0x00	0
77	0x00	0
78	0x00	0
79	0x00	0
80	0x00	0
81	0x00	0
82	0x40	64
83	0x00	0
84	0x00	0
85	0x00	0
86	0x00	0
87	0x00	0
88	0x00	0
89	0x00	0
90	0x20	32
91	0x00	0
92	0x00	0
93	0x00	0
94	0x01	1
95	0x00	0
96	0x00	0
97	0x00	0
98	0x10	16
99	0x00	0
100	0x00	0
101	0x00	0
102	0x10	16
103	0x00	0
104	0x00	0
105	0x00	0
106	0x10	16
107	0x00	0
108	0x00	0
109	0x00	0
110	0x10	16
111	0x00	0
112	0x00	0
113	0x00	0
114	0x01	1
115	0x00	0
116	0x00	0
117	0x00	0
118	0x21	33
119	0x00	0
120	0x00	0
121	0x00	0
122	0x21	33
123	0x00	0
124	0x00	0
125	0x00	0
126	0x04	4
127	0x00	0
128	0x00	0
129	0x00	0
130	0x03	3
131	0x00	0
132	0x00	0
133	0x00	0
134	0x03	3
135	0x00	0
136	0x00	0
137	0x00	0
138	0x02	2
139	0x00	0
140	0x00	0
141	0x00	0
142	0x02	2
143	0x00	0
144	0x00	0
145	0x00	0
146	0x00	0
147	0x00	0
148	0x00	0
149	0x00	0
150	0x00	0
151	0x00	0
152	0x00	0
153	0x00	0
154	0x00	0
155	0x00	0
156	0x00	0
157	0x00	0
158	0x00	0
159	0x00	0
160	0x00	0
161	0x00	0
162	0x01	1
163	0x00	0
164	0x00	0
165	0x00	0
166	0x01	1
167	0x00	0
168	0x00	0
169	0x00	0
170	0x10	16
171	0x01	1
172	0x0f	15
173	0x07	7
174	0x00	0
175	0x00	0
176	0x00	0
177	0x00	0
178	0x00	0
179	0x00	0
180	0x00	0
181	0x00	0
182	0x01	1
183	0x00	0
184	0x00	0
185	0x00	0
186	0x01	1
187	0x00	0
188	0x00	0
189	0x00	0
190	0x00	0
191	0x00	0
192	0x00	0
193	0x00	0
194	0x30	48
195	0x80	128
196	0x00	0
197	0x00	0
198	0x00	0
199	0x00	0
200	0x00	0
201	0x00	0
202	0x00	0
203	0x00	0
204	0x00	0
205	0x00	0
206	0x00	0
207	0x00	0
208	0x00	0
209	0x00	0
210	0x00	0
211	0x00	0
212	0x00	0
213	0x00	0
214	0x05	5
215	0x01	1
216	0x03	3
217	0x05	5
218	0x04	4
219	0x04	4
220	0x01	1
221	0x01	1
222	0x01	1
223	0x00	0
224	0x02	2
225	0x19	25
226	0x00	0
227	0x00	0
228	0x00	0
229	0x00	0
230	0x00	0
231	0x10	16
232	0x00	0
233	0x00	0
234	0x00	0
235	0x03	3
236	0x00	0
237	0x00	0
238	0x80	128
239	0x02	2
240	0x00	0
241	0x00	0
242	0xe0	224
243	0x02	2
244	0x00	0
245	0x00	0
246	0x01	1
247	0x00	0
248	0x00	0
249	0x00	0
250	0x10	16
251	0x00	0
252	0x00	0
253	0x00	0
254	0x10	16
255	0x00	0

NeutronWeights u1 [420180]
0	0xa3	163
1	0x22	34
2	0x36	54
3	0x9e	158
4	0x23	35
5	0x1f	31
6	0x3a	58
7	0xd7	215
8	0x80	128
9	0x1e	30
10	0x00	0
11	0xda	218
12	0x29	41
13	0x17	23
14	0x69	105
15	0x4a	74
16	0xe1	225
17	0x22	34
18	0x02	2
19	0x17	23
20	0xe6	230
21	0x16	22
22	0x00	0
23	0x80	128
24	0xef	239
25	0x1a	26
26	0xfa	250
27	0xce	206
28	0x69	105
29	0x17	23
30	0x6f	111
31	0x13	19
32	0x1f	31
33	0x53	83
34	0x9c	156
35	0x46	70
36	0x5b	91
37	0x4e	78
38	0x7b	123
39	0x8b	139
40	0x9b	155
41	0x4e	78
42	0x55	85
43	0x92	146
44	0x01	1
45	0x47	71
46	0xb8	184
47	0x8a	138
48	0x51	81
49	0x4e	78
50	0x9f	159
51	0x42	66
52	0x55	85
53	0x47	71
54	0x01	1
55	0x93	147
56	0x99	153
57	0x4f	79
58	0x92	146
59	0x8a	138
60	0x26	38
61	0x4f	79
62	0xd3	211
63	0x46	70
64	0xff	255
65	0x16	22
66	0xff	255
67	0x00	0
68	0x00	0
69	0x00	0
70	0xd6	214
71	0x00	0
72	0xd6	214
73	0xb5	181
74	0xf0	240
75	0x00	0
76	0x00	0
77	0x00	0
78	0x00	0
79	0x00	0
80	0x38	56
81	0x72	114
82	0x24	36
83	0x00	0
84	0x00	0
85	0x00	0
86	0x00	0
87	0x00	0
88	0x0e	14
89	0xf2	242
90	0xe6	230
91	0x00	0
92	0x00	0
93	0x00	0
94	0x00	0
95	0x00	0
96	0x0b	11
97	0x1e	30
98	0x00	0
99	0x00	0
100	0x00	0
101	0x00	0
102	0x00	0
103	0x00	0
104	0x10	16
105	0x32	50
106	0x0d	13
107	0x00	0
108	0x00	0
109	0x00	0
110	0x00	0
111	0x00	0
112	0x48	72
113	0x7f	127
114	0x24	36
115	0x00	0
116	0x00	0
117	0x00	0
118	0x00	0
119	0x00	0
120	0x3f	63
121	0xf1	241
122	0xc4	196
123	0x00	0
124	0x00	0
125	0x00	0
126	0x00	0
127	0x00	0
128	0x00	0
129	0x00	0
130	0x00	0
131	0x00	0
132	0x00	0
133	0x00	0
134	0xec	236
135	0x00	0
136	0x1f	31
137	0x33	51
138	0x04	4
139	0x00	0
140	0x00	0
141	0x00	0
142	0x00	0
143	0x00	0
144	0x1b	27
145	0x17	23
146	0x0c	12
147	0x00	0
148	0x00	0
149	0x00	0
150	0x00	0
151	0x00	0
152	0x40	64
153	0x00	0
154	0xc8	200
155	0x00	0
156	0x00	0
157	0x00	0
158	0x00	0
159	0x00	0
160	0xbe	190
161	0x81	129
162	0xda	218
163	0x00	0
164	0x1f	31
165	0x48	72
166	0x2d	45
167	0x00	0
168	0xb7	183
169	0x81	129
170	0xd8	216
171	0x00	0
172	0x00	0
173	0x00	0
174	0x00	0
175	0x00	0
176	0xda	218
177	0xb0	176
178	0xf2	242
179	0x00	0
180	0x00	0
181	0x00	0
182	0x00	0
183	0x00	0
184	0x4d	77
185	0xda	218
186	0xc5	197
187	0x00	0
188	0x00	0
189	0x00	0
190	0x00	0
191	0x00	0
192	0xbf	191
193	0x89	137
194	0xdf	223
195	0x00	0
196	0x00	0
197	0xe6	230
198	0x00	0
199	0x00	0
200	0x0a	10
201	0x32	50
202	0xfe	254
203	0x00	0
204	0x00	0
205	0x00	0
206	0x00	0
207	0x00	0
208	0xd5	213
209	0xac	172
210	0xf2	242
211	0x00	0
212	0x00	0
213	0x00	0
214	0x00	0
215	0x00	0
216	0x7f	127
217	0xd0	208
218	0xa4	164
219	0x00	0
220	0x00	0
221	0x00	0
222	0x00	0
223	0x00	0
224	0xf3	243
225	0xf0	240
226	0x03	3
227	0x00	0
228	0x00	0
229	0x00	0
230	0x00	0
231	0x00	0
232	0x26	38
233	0x45	69
234	0x0e	14
235	0x00	0
236	0x00	0
237	0x00	0
238	0x00	0
239	0x00	0
240	0xee	238
241	0xed	237
242	0x00	0
243	0x00	0
244	0x00	0
245	0x00	0
246	0x00	0
247	0x00	0
248	0x43	67
249	0xf3	243
250	0xcd	205
251	0x00	0
252	0x00	0
253	0x00	0
254	0x00	0
255	0x00	0
